cell2loc/sp15_single_cell_res/cell2location_map/model.pt (torch, 967788 bytes, 23 tensors)

_model.detection_mean_hyp_prior_beta f8 []
0	0x4041f6ad4e97620c	35.92716390983341

_model.cell_state f4 [17, 188]
0	0x3ea9b01a	0.33142167
1	0x3c244f48	0.010028668
2	0x3e490ae8	0.19633067
3	0x3dbcc41a	0.09217091
4	0x3f58538c	0.8450248
5	0x40a04c3d	5.0093064
6	0x3da1718a	0.07882984
7	0x3e210a49	0.1572658
8	0x3ddbe1fc	0.107364625
9	0x3f87872d	1.0588127
10	0x3d3fd2ef	0.04683202
11	0x3cfeda87	0.031110061
12	0x4044b034	3.0732546
13	0x3f9b73c7	1.2144707
14	0x3fbb41b2	1.4629424
15	0x3f8e8061	1.1132928
16	0x3f933723	1.1501201
17	0x3fb16e02	1.3861697
18	0x3f2bbce6	0.6708511
19	0x3fcea56f	1.6144236
20	0x3f81d6fd	1.0143734
21	0x3f9be22c	1.2178397
22	0x3d311d99	0.043241117
23	0x3d62dd71	0.055386964
24	0x3e281f5a	0.1641821
25	0x3d0c6b36	0.03428193
26	0x3d611593	0.054952215
27	0x3fdf25c1	1.7433397
28	0x3dbb9fa1	0.09161306
29	0x3e4647d0	0.19363332
30	0x400fac6a	2.2448983
31	0x3ca32439	0.019914733
32	0x3f2e165a	0.68002856
33	0x3ffc52fa	1.9712822
34	0x3c5a9c4c	0.013342928
35	0x3d5f1dec	0.054471895
36	0x3f15d949	0.58534676
37	0x3bf1dcf5	0.0073810765
38	0x3ebaecfa	0.36508924
39	0x3e099712	0.13436535
40	0x3fcd5d84	1.6044164
41	0x3cdca1e0	0.026932657
42	0x4019d132	2.4033933
43	0x3e8059ab	0.2506841
44	0x3f160918	0.58607626
45	0x3e8d241e	0.27566618
46	0x4005a1c1	2.0879977
47	0x400ea437	2.2287729
48	0x3f2270a7	0.63453144
49	0x392dd009	0.00016576065
50	0x3d4efef9	0.05053613
51	0x40780202	3.8751225
52	0x4002aa7b	2.0416553
53	0x4024f27c	2.5773
54	0x401e6bcb	2.4753292
55	0x3c575208	0.013142116
56	0x3f8eb34b	1.1148466
57	0x3fe9aeab	1.825643
58	0x3db63bd7	0.08898132
59	0x3db3bf53	0.087767266
60	0x3e367b3a	0.17820445
61	0x392d3b0b	0.00016520561
62	0x4004b141	2.0733187
63	0x3d7db765	0.061942477
64	0x4050b2ca	3.2609124
65	0x405884ca	3.3831048
66	0x3f8dbe9c	1.1073794
67	0x3fb69155	1.4263102
68	0x3e1eddd3	0.15514307
69	0x3e25833d	0.16163345
70	0x3f392fff	0.7233886
71	0x3fa6b972	1.3025343
72	0x3fb2fc5f	1.3983268
73	0x3fe3f46a	1.7808964
74	0x3d4dce25	0.050245423
75	0x3dc9625e	0.09833215
76	0x3ed78519	0.42093733
77	0x3ea4113f	0.32044408
78	0x403945e8	2.8948917
79	0x3db541cc	0.088504404
80	0x3db3d4db	0.08780833
81	0x3cdcb40e	0.026941326
82	0x3c54324f	0.012951448
83	0x3d404782	0.046943195
84	0x3f2932f6	0.66093385
85	0x3fde6aac	1.7376304
86	0x3fa03f6e	1.2519357
87	0x3f3ffa58	0.7499137
88	0x392f6a44	0.00016728888
89	0x3dedace3	0.11605241
90	0x3e2abda2	0.16673902
91	0x3f38d220	0.72195625
92	0x3e082e4b	0.1329891
93	0x40bcb3ed	5.8969636
94	0x3e7c79ba	0.2465581
95	0x3ca08c61	0.019598188
96	0x3c25e4aa	0.010125319
97	0x3ce3f427	0.027826382
98	0x402dcc02	2.7155766
99	0x405f78ab	3.49174
100	0x403b85b4	2.9300356
101	0x4036c8dd	2.8560097
102	0x40184fba	2.3798661
103	0x40098420	2.1486893
104	0x4019b1e3	2.4014823
105	0x400d73b3	2.2101867
106	0x402f0c06	2.7351089
107	0x3ef98504	0.48734295
108	0x3fc61eb4	1.547812
109	0x3e18878b	0.14895456
110	0x3f499420	0.78741646
111	0x3e5e3899	0.21701278
112	0x3f9e0a56	1.2346904
113	0x4079b0ac	3.9014082
114	0x3ef57986	0.47944278
115	0x3e8d3011	0.27575734
116	0x3cc21c05	0.023695001
117	0x3fe22227	1.7666672
118	0x3fa89f3e	1.3173597
119	0x3d40d333	0.047076415
120	0x3f8e60ce	1.1123292
121	0x392dd49b	0.00016577767
122	0x3e05960c	0.1304552
123	0x3d956f5a	0.07296629
124	0x40050685	2.078523
125	0x3f3328f3	0.6998436
126	0x3e99f478	0.30069327
127	0x3cdd0ebb	0.026984563
128	0x3e788527	0.24269544
129	0x4038dbd2	2.8884168
130	0x40476b6a	3.115931
131	0x401e5bc7	2.4743516
132	0x402c2e96	2.6903434
133	0x40304870	2.7544212
134	0x403fa6fe	2.9945674
135	0x403e54fa	2.9739366
136	0x403ed001	2.9814456
137	0x403bd0e6	2.9346251
138	0x403f84be	2.992477
139	0x402eb3a3	2.7297142
140	0x4008e623	2.1390464
141	0x400e42b9	2.2228224
142	0x40103c19	2.253668
143	0x402dbc53	2.7146194
144	0x404821bd	3.1270592
145	0x401b2572	2.4241605
146	0x404781c7	3.117296
147	0x4013405b	2.300803
148	0x40409ae1	3.009453
149	0x403d7251	2.9601023
150	0x401565d3	2.3343399
151	0x4047384b	3.1128109
152	0x400ded1d	2.2175972
153	0x40342df7	2.8153055
154	0x402b81ec	2.6798048
155	0x40362264	2.845849
156	0x407e54c4	3.9739237
157	0x40505ed8	3.2557888
158	0x40458083	3.0859687
159	0x4031f964	2.7808466
160	0x3ff7c986	1.9358375
161	0x403f26fe	2.986755
162	0x402a7b3b	2.6637714
163	0x400c1ba3	2.1891868
164	0x3f67ddf1	0.9057303
165	0x3f86703e	1.0503004
166	0x4041012c	3.0156965
167	0x4010cff7	2.2626932
168	0x3e1fd673	0.1560915
169	0x3e7d2d62	0.24724343
170	0x3f076147	0.5288281
171	0x3f2dd4fc	0.67903113
172	0x3bf18e0f	0.007371671
173	0x3cdefe37	0.027220828
174	0x3e3cb8db	0.18429892
175	0x3becf61e	0.007231488
176	0x3bf226f1	0.007389896
177	0x3f5134ae	0.8172101
178	0x408635ac	4.1940517
179	0x3f0588b6	0.5216173
180	0x3f7f6a71	0.9977179
181	0x3fb53e67	1.4159669
182	0x3ed6dfbe	0.41967577
183	0x3c235a7a	0.009970302
184	0x3e2ca962	0.1686149
185	0x40036b14	2.0534105
186	0x3c8906db	0.016726902
187	0x392e874b	0.00016644334
188	0x3e4fa6f5	0.20278533
189	0x3cc11759	0.023570703
190	0x3dfb10fc	0.12259099
191	0x3d91c967	0.071184926
192	0x3ecf3d70	0.4047656
193	0x4098d0a8	4.7754707
194	0x3d6e9e29	0.058256302
195	0x3e2d8427	0.16944943
196	0x3e0add90	0.13561082
197	0x3f66e9b0	0.9020033
198	0x3ddb459f	0.107066385
199	0x3d1d6283	0.038424026
200	0x403ed248	2.9815845
201	0x3fbcd274	1.4751725
202	0x3f46c9b3	0.7765152
203	0x3f8980f1	1.0742475
204	0x3fd81c2c	1.6883597
205	0x3fb06ec6	1.3783805
206	0x3fb0bde5	1.3807951
207	0x402a723d	2.6632226
208	0x3ef7453f	0.48295018
209	0x3f8a4545	1.0802389
210	0x3c539cfa	0.012915844
211	0x3d800eec	0.06252846
212	0x3f87d18a	1.0610821
213	0x3f3f480f	0.7471933
214	0x3d9fdd6a	0.07805903
215	0x3f2101a8	0.6289315
216	0x3e8b86a9	0.27251175
217	0x3e4085e3	0.18801074
218	0x3fd861f0	1.6904888
219	0x3cc4b242	0.024010781
220	0x3f12353c	0.5711248
221	0x3fa11abe	1.2586286
222	0x3c22eed6	0.009944638
223	0x3d5060b0	0.05087346
224	0x3ea1bb72	0.31588322
225	0x3ce05dcb	0.027388474
226	0x3e875f1c	0.2643975
227	0x3dd1e647	0.10249
228	0x3f015159	0.5051475
229	0x3d0ed224	0.034868374
230	0x3fd8bee9	1.6933261
231	0x3e55bf98	0.20873868
232	0x3f15db1c	0.5853746
233	0x3e8b1dba	0.27171117
234	0x3ff0ff87	1.8827981
235	0x40050b87	2.0788286
236	0x3ee1cff1	0.4410396
237	0x3bb0df7c	0.005397735
238	0x3dd215a6	0.10258035
239	0x4042bc0a	3.042727
240	0x3ff0d64f	1.8815402
241	0x3fd76ec7	1.6830682
242	0x400aa76e	2.166469
243	0x3ded8557	0.11597698
244	0x3f92562a	1.1432545
245	0x3fe016f4	1.7507005
246	0x3d1e42e1	0.038638
247	0x3da268af	0.07930123
248	0x3dfe1636	0.1240658
249	0x392d501b	0.00016528407
250	0x3ff36973	1.9016556
251	0x3e022d42	0.12712577
252	0x403bee2a	2.9364114
253	0x4043eec7	3.0614488
254	0x3f50d7ed	0.81579477
255	0x3f9c4b22	1.2210429

_model.ones_1_n_groups f4 [1, 50]
0	0x3f800000	1.0
1	0x3f800000	1.0
2	0x3f800000	1.0
3	0x3f800000	1.0
4	0x3f800000	1.0
5	0x3f800000	1.0
6	0x3f800000	1.0
7	0x3f800000	1.0
8	0x3f800000	1.0
9	0x3f800000	1.0
10	0x3f800000	1.0
11	0x3f800000	1.0
12	0x3f800000	1.0
13	0x3f800000	1.0
14	0x3f800000	1.0
15	0x3f800000	1.0
16	0x3f800000	1.0
17	0x3f800000	1.0
18	0x3f800000	1.0
19	0x3f800000	1.0
20	0x3f800000	1.0
21	0x3f800000	1.0
22	0x3f800000	1.0
23	0x3f800000	1.0
24	0x3f800000	1.0
25	0x3f800000	1.0
26	0x3f800000	1.0
27	0x3f800000	1.0
28	0x3f800000	1.0
29	0x3f800000	1.0
30	0x3f800000	1.0
31	0x3f800000	1.0
32	0x3f800000	1.0
33	0x3f800000	1.0
34	0x3f800000	1.0
35	0x3f800000	1.0
36	0x3f800000	1.0
37	0x3f800000	1.0
38	0x3f800000	1.0
39	0x3f800000	1.0
40	0x3f800000	1.0
41	0x3f800000	1.0
42	0x3f800000	1.0
43	0x3f800000	1.0
44	0x3f800000	1.0
45	0x3f800000	1.0
46	0x3f800000	1.0
47	0x3f800000	1.0
48	0x3f800000	1.0
49	0x3f800000	1.0

_guide.locs.m_g_unconstrained f4 [1, 188]
0	0xc0dab45e	-6.8345175
1	0xc1007bf3	-8.030261
2	0xbe2b2eec	-0.16717118
3	0xc05c77bf	-3.4448087
4	0xc0899c23	-4.3003097
5	0xbe667cc5	-0.22508533
6	0xbee34cd2	-0.44394547
7	0xbeefeef2	-0.46861988
8	0xbe91d1d8	-0.2848041
9	0xc021c39f	-2.5275648
10	0xc0640678	-3.5628948
11	0xbf807c5c	-1.0037951
12	0xc0b5f8cf	-5.686622
13	0xc09ac4f2	-4.836541
14	0xc0d08cec	-6.5172024
15	0xc09517b6	-4.6591444
16	0xc08b274c	-4.348547
17	0xc0a26403	-5.0747085
18	0xc0de2768	-6.9423103
19	0xc09b6426	-4.855975
20	0xc0e2fad5	-7.093119
21	0xbf072987	-0.5279774
22	0xc0e0c1f7	-7.0236773
23	0xc08759ab	-4.229696
24	0xc088e7b1	-4.2782826
25	0xc0a1135a	-5.0336123
26	0x3e927f18	0.2861259
27	0xc028b566	-2.6360717
28	0xc0621ce6	-3.5330138
29	0x3ef1cc40	0.47226143
30	0xc0a33113	-5.0997405
31	0x3f47134b	0.77763814
32	0xc0505bb2	-3.2555966
33	0xc0b94270	-5.78936
34	0xc089108e	-4.283271
35	0xbe924e44	-0.28575337
36	0xc027bd1f	-2.620918
37	0x3f64a0bc	0.8930776
38	0xbf954e14	-1.1664453
39	0xc04d2037	-3.2050912
40	0xc0a70388	-5.219181
41	0xc0b47e8e	-5.6404486
42	0xc05b6af1	-3.4284022
43	0xbfcb438c	-1.5879989
44	0xbfc1b213	-1.5132469
45	0xc0021b1b	-2.0329044
46	0xbde08ca3	-0.10964324
47	0xbe0527ca	-0.1300346
48	0xbfef9fe5	-1.8720671
49	0xbfbfeb6e	-1.4993722
50	0xbfa995fe	-1.3248899
51	0xc0a523d6	-5.1606245
52	0xc0b63094	-5.69343
53	0xc113fb6f	-9.248885
54	0xc0d78147	-6.734531
55	0xc0733ce1	-3.8005908
56	0xc0cee855	-6.465861
57	0xbf5ecb7f	-0.8702926
58	0xbff4d0e5	-1.912625
59	0xc03e06fd	-2.9691765
60	0xc0cceb33	-6.403711
61	0xc0943cce	-4.6324224
62	0xc08a4ac5	-4.321627
63	0xc0345bb0	-2.8180962
64	0xbf4d63df	-0.80230516
65	0xbfd25419	-1.6431915
66	0xbfefdf8f	-1.87401
67	0xbfdaa377	-1.7081136
68	0xbfc649dc	-1.549129
69	0xbf50acaa	-0.81513464
70	0xbf5ba7a5	-0.8580268
71	0xbfa06f82	-1.253403
72	0x3fa0f0ce	1.2573488
73	0xbf8e5fb7	-1.112296
74	0x3f621dba	0.8832661
75	0xc10c99fb	-8.787593
76	0xc0fdaa7f	-7.9270625
77	0xc10a8753	-8.658038
78	0xc04e5250	-3.223774
79	0xc05e1cf5	-3.4705174
80	0xc01e67e8	-2.475092
81	0xc085acc0	-4.1773376
82	0xbf8df895	-1.1091486
83	0xc1048c0f	-8.284194
84	0xc10dd8e3	-8.865451
85	0xc10c2c58	-8.760826
86	0xc10404f1	-8.251206
87	0xc008b2c5	-2.1359112
88	0xc0e948dc	-7.290144
89	0xc044443b	-3.0666645
90	0xc09e9407	-4.9555697
91	0xc04befc1	-3.1865084
92	0xbffd13e9	-1.9771701
93	0xbf846a21	-1.0344888
94	0xbf9a37d5	-1.2048289
95	0xc0825f3c	-4.0741253
96	0xc00d506f	-2.2080343
97	0xc105ed35	-8.370412
98	0x3f895875	1.073012
99	0x3f97c8c6	1.1858146
100	0x3f9cd2bb	1.225181
101	0x3fd82acd	1.6888062
102	0x3f97d88b	1.1862959
103	0x3fa08035	1.2539126
104	0x3f3ae96e	0.73012435
105	0x3f82da52	1.0222876
106	0x3fa23cdf	1.2674826
107	0xbe0b2b4f	-0.1359074
108	0xbe6ab6d4	-0.22921306
109	0xc012bb16	-2.2926688
110	0xbfb9c97f	-1.4514617
111	0xbf578a8a	-0.8419577
112	0x3de384cc	0.11109313
113	0xc0e7dc3d	-7.2456346
114	0xbfc440da	-1.5332291
115	0xbf2e5274	-0.68094563
116	0xc0b43c8e	-5.632392
117	0xbf91030b	-1.1329054
118	0xbfb3fba5	-1.4061171
119	0xc10eb1c3	-8.918399
120	0xc111e469	-9.118264
121	0xc02ad993	-2.6695297
122	0x3e31b7ad	0.17355223
123	0xc10eb79d	-8.919827
124	0xc0a5c24f	-5.1799693
125	0x3ea96f4a	0.3309272
126	0xc047e9aa	-3.1236367
127	0xc1076f7a	-8.464716
128	0xbf0449a7	-0.51674885
129	0xbe24a573	-0.16078739
130	0x3efe7e2c	0.49705637
131	0xbee30e7a	-0.44346982
132	0xbd02cbd8	-0.03193268
133	0xbd2647f3	-0.04059596
134	0xbea04f4d	-0.31310502
135	0x3e416a97	0.18888317
136	0x3c2b3eff	0.010452031
137	0x3e29ff56	0.16601309
138	0x3c9267a0	0.017871678
139	0xbe17cbf1	-0.14823891
140	0x3e3e7a5a	0.18601361
141	0xbe67b907	-0.22629176
142	0x3dc24e1b	0.09487554
143	0x3dfc4db2	0.12319507
144	0x3d758f9f	0.05995142
145	0x3e750ae3	0.23929934
146	0x3e997cc1	0.29977992
147	0xbe256a0c	-0.16153735
148	0xbcbbfab2	-0.02294669
149	0xbe2048a2	-0.15652707
150	0x3e0d0afb	0.1377372
151	0x3f239672	0.63901436
152	0x3ebeff26	0.37304038
153	0xbccdc882	-0.025120024
154	0xbe15db15	-0.14634354
155	0xbd61ed45	-0.05515792
156	0x3f04a306	0.51811254
157	0x3e796f31	0.24358822
158	0xbe938b7d	-0.2881736
159	0x3d80ee41	0.06295443
160	0xbd59fd1e	-0.053219907
161	0x3e8c074f	0.27349326
162	0x3e88d8f0	0.2672801
163	0xbe9f91a2	-0.31165797
164	0xbffc9439	-1.9732734
165	0x3e0c62ac	0.13709515
166	0xbf0f5e9d	-0.56003743
167	0x3f0eb61c	0.55746627
168	0xc082a9f2	-4.0832453
169	0xc0900674	-4.5007877
170	0xbfe1c739	-1.7638923
171	0xbf94ca41	-1.1624223
172	0xc09f2e5c	-4.974409
173	0xbf86e28e	-1.0537889
174	0xbdfd70c1	-0.12375022
175	0xbfa952a1	-1.3228341
176	0x4034714a	2.8194146
177	0xbead38ab	-0.33832297
178	0xbf5226e7	-0.8209061
179	0xc0538c9e	-3.3054576
180	0xc05763ac	-3.3654585
181	0xc0db91ab	-6.8615317
182	0xc10050bd	-8.0197115
183	0xc1043712	-8.263445
184	0xbfc7a1bd	-1.5596234
185	0xc0600439	-3.5002577
186	0xbf718a26	-0.9435142
187	0xbedb434f	-0.4282479

_guide.locs.n_s_cells_per_location_unconstrained f4 [962, 1]
0	0x401d8fa7	2.4618928
1	0x3fbb8352	1.4649451
2	0x3fe1eac9	1.7649776
3	0x3fc49ce8	1.5360384
4	0x3fbbdd6f	1.4676951
5	0x3fabbbeb	1.3416723
6	0x3ff811b4	1.9380403
7	0x4014c711	2.32465
8	0x3fc16469	1.5108768
9	0x3fdf9789	1.746812
10	0x4001b463	2.026635
11	0x400597b9	2.0873854
12	0x3fb7929e	1.4341619
13	0x405daad7	3.4635522
14	0x3fc257df	1.5183066
15	0x3fc5f568	1.5465517
16	0x3fffd546	1.9986961
17	0x3fc84319	1.5645477
18	0x3fcfcb67	1.6233948
19	0x3fdc769e	1.7223699
20	0x3ffe3db3	1.9862579
21	0x3fb71068	1.4301882
22	0x3f973c62	1.1815302
23	0x3fc9cad4	1.5765023
24	0x40035ef6	2.052671
25	0x3f79b60f	0.97543424
26	0x3fbf1e0d	1.4931046
27	0x4054f4b1	3.3274348
28	0x3fdab50e	1.7086504
29	0x3fc834a0	1.564106
30	0x3fe099ad	1.7546898
31	0x3fcdfd81	1.6092988
32	0x3feb7d6d	1.8397652
33	0x400e1fe0	2.2206955
34	0x40254140	2.5821075
35	0x3f7137ee	0.94225967
36	0x3f6d2126	0.92628706
37	0x3f927c84	1.1444249
38	0x3f97256d	1.1808296
39	0x3f8ec39f	1.1153449
40	0x404410a2	3.0635152
41	0x403516cf	2.8295171
42	0x3fe0ec75	1.7572161
43	0x400bde4d	2.1854432
44	0x3f9f9127	1.2466172
45	0x3fa65f6c	1.299787
46	0x3f9e992a	1.2390492
47	0x3fdb766a	1.7145512
48	0x4041077a	3.0160813
49	0x3f91761f	1.1364173
50	0x3fa8038b	1.3126081
51	0x4030284d	2.7524598
52	0x4051a31e	3.275581
53	0x3feb1dfe	1.8368528
54	0x3fa99a10	1.3250141
55	0x3fb6280e	1.4230974
56	0x3f8591df	1.0435141
57	0x3f953221	1.1655923
58	0x3f8fea96	1.1243465
59	0x3f9c72c6	1.2222526
60	0x3ff9dd12	1.952059
61	0x4047ac3e	3.1198878
62	0x402169e5	2.5220883
63	0x3f9c57b8	1.221427
64	0x3fc0c195	1.5059077
65	0x4039056f	2.8909566
66	0x4034cea0	2.8251114
67	0x3fa5e131	1.2959348
68	0x3fd32dfb	1.6498407
69	0x3fce0f32	1.6098387
70	0x3fbbab20	1.4661598
71	0x3f9c8c65	1.2230345
72	0x402e8218	2.7266903
73	0x3fed0a5a	1.8518784
74	0x3fa23e81	1.2675325
75	0x4058cf98	3.3876705
76	0x3fc97eee	1.5741861
77	0x3fb38763	1.4025692
78	0x401e8a86	2.4772048
79	0x4008f721	2.1400836
80	0x400f37e5	2.2377865
81	0x3ff4d761	1.9128228
82	0x3fd2d11a	1.6470063
83	0x400e0c7e	2.2195125
84	0x401ea6c9	2.4789298
85	0x404cf162	3.2022328
86	0x3f849452	1.0357764
87	0x3f7f7451	0.9978686
88	0x3fb6b994	1.4275384
89	0x3f550c14	0.83221555
90	0x3ffb9f7b	1.9658045
91	0x3fb1e744	1.3898702
92	0x3f70af72	0.9401771
93	0x40092979	2.1431563
94	0x3fc6de29	1.5536548
95	0x3fc2fe60	1.5233879
96	0x3fd34c83	1.6507725
97	0x3fb64456	1.4239604
98	0x3f184105	0.5947421
99	0x404dbf6d	3.2148087
100	0x3fd570dc	1.6675067
101	0x40480796	3.125463
102	0x404fe498	3.2483273
103	0x3ff8abb1	1.9427396
104	0x3fa63b57	1.2986859
105	0x3f1157c3	0.5677454
106	0x3f6707f7	0.9024653
107	0x3f912121	1.1338235
108	0x3fe01f87	1.7509621
109	0x3f94b22d	1.1616875
110	0x3f725101	0.9465485
111	0x3f79f9cb	0.9764678
112	0x4001fe74	2.0311556
113	0x3fd17078	1.6362448
114	0x3fbbb7f6	1.4665515
115	0x404cddea	3.2010446
116	0x3ff51735	1.9147707
117	0x3fa33840	1.2751541
118	0x401679d5	2.351186
119	0x3fc44c17	1.5335721
120	0x3fc6e5f9	1.5538932
121	0x3fb132e9	1.3843662
122	0x3fcea286	1.6143348
123	0x3fdfce95	1.7484919
124	0x3fc19788	1.5124369
125	0x3f8808ba	1.0627663
126	0x3fbc1a07	1.4695443
127	0x3f94bd2a	1.1620228
128	0x3fd1fed1	1.6405889
129	0x3fd44066	1.6582153
130	0x400102e5	2.0158017
131	0x401f1020	2.4853592
132	0x3fb1a976	1.387984
133	0x3fd0e99c	1.6321292
134	0x3fc4af88	1.5366068
135	0x4041cd46	3.028154
136	0x3fcfc481	1.6231843
137	0x40011dae	2.0174365
138	0x3ff9f409	1.9527599
139	0x3fbc1b15	1.4695765
140	0x3febc090	1.841814
141	0x3f81fef8	1.0155935
142	0x3f95be47	1.1698693
143	0x3fdfd8d5	1.7488047
144	0x4025f6be	2.593185
145	0x3fa40e69	1.2816898
146	0x3f91bb9e	1.1385381
147	0x400c2e64	2.1903315
148	0x40021046	2.0322433
149	0x3fb0a9e4	1.3801847
150	0x3fbf5fd3	1.4951118
151	0x3f9e4bff	1.2366942
152	0x3f999d68	1.2001162
153	0x3ff9a3b5	1.9503084
154	0x3fdad760	1.7096977
155	0x3fb0890c	1.3791823
156	0x4039c432	2.9025998
157	0x3fbebb5e	1.490093
158	0x3f6c16d0	0.9222231
159	0x3fe134b9	1.7594215
160	0x3feb3c46	1.8377769
161	0x3fcf6e69	1.620557
162	0x405899a2	3.384377
163	0x3febf05b	1.8432726
164	0x3fce9e08	1.6141977
165	0x3f8998c8	1.074975
166	0x3fc60aec	1.5472083
167	0x3fe4c43d	1.7872387
168	0x3fbb7086	1.4643714
169	0x3ff5b2de	1.9195211
170	0x3fc22ae0	1.5169334
171	0x3f9afe91	1.2108938
172	0x4041f8f4	3.03082
173	0x3f87540e	1.0572526
174	0x3feccfe0	1.8500938
175	0x3fdc72ff	1.7222594
176	0x3fd4b5b2	1.6617949
177	0x3ff61201	1.9224244
178	0x3ff78ba2	1.9339488
179	0x3fed755f	1.8551444
180	0x3fa75815	1.3073756
181	0x4047d781	3.1225283
182	0x3f95a946	1.1692283
183	0x3fec0a89	1.8440715
184	0x40081397	2.1261957
185	0x3f876b2a	1.0579579
186	0x3fcec04c	1.6152434
187	0x3fd5f2b6	1.6714694
188	0x3ffe6387	1.9874123
189	0x3fd392a5	1.6529127
190	0x405ade08	3.4198017
191	0x40519a23	3.2750328
192	0x3fa75d4b	1.3075346
193	0x40267e73	2.6014678
194	0x3fba6979	1.4563438
195	0x3faf7b20	1.370945
196	0x401f667f	2.4906309
197	0x3fa29927	1.2702988
198	0x3f2a9763	0.6663725
199	0x3ffd36ea	1.9782383
200	0x3fa0e902	1.2571108
201	0x3fb78b85	1.4339453
202	0x4029dd5f	2.6541364
203	0x3fc51ff4	1.5400376
204	0x3fd67a16	1.6756008
205	0x3fc81066	1.5630004
206	0x3f4b176c	0.79332614
207	0x3fdc7989	1.722459
208	0x3f92e74c	1.1476836
209	0x3f811663	1.0084957
210	0x3fa79605	1.3092657
211	0x3fab3c71	1.337782
212	0x3f9598f8	1.1687307
213	0x3f72cd2d	0.94844323
214	0x3fa4d4ac	1.2877402
215	0x3ff0df9d	1.8818241
216	0x401b0671	2.4222682
217	0x3fa79b8a	1.3094342
218	0x404d8b98	3.2116451
219	0x3fa6d49a	1.3033631
220	0x3fae9b87	1.3641213
221	0x3fd30b39	1.64878
222	0x3fa1bf45	1.2636496
223	0x3fa14267	1.2598389
224	0x40101f02	2.2518926
225	0x3fb659de	1.4246175
226	0x3fcbfa10	1.5935688
227	0x3fa77e3c	1.3085399
228	0x3fe5f3e0	1.796505
229	0x3f5314b9	0.82453495
230	0x404f898d	3.2427704
231	0x3fc111e2	1.5083582
232	0x400fb42b	2.2453716
233	0x3fe03ce3	1.7518581
234	0x3fc80faf	1.5629786
235	0x4009ef04	2.1552134
236	0x3fcce1bf	1.6006392
237	0x402491cb	2.5713985
238	0x404a5f68	3.1620731
239	0x4011c2ba	2.2775102
240	0x3f8edb79	1.1160728
241	0x3fa9d2b9	1.3267432
242	0x3fb21866	1.3913696
243	0x3fc38039	1.5273505
244	0x3ff65ccf	1.9247073
245	0x3fb923b8	1.4464025
246	0x3fcd2651	1.6027318
247	0x3fbfbba1	1.4979135
248	0x400a9a40	2.1656647
249	0x404f1156	3.235433
250	0x3fe95a15	1.8230616
251	0x3f929407	1.1451424
252	0x3f9e7362	1.2378962
253	0x3fde93aa	1.7388813
254	0x40008937	2.008375
255	0x3fbd16b8	1.4772558

_guide.locs.b_s_groups_per_location_unconstrained f4 [962, 1]
0	0x40409976	3.0093665
1	0x403bcb82	2.9342961
2	0x403c4bdb	2.9421299
3	0x403b2000	2.9238281
4	0x403af9d3	2.921498
5	0x40392ee3	2.8934867
6	0x403dedf3	2.9676483
7	0x403ee3e4	2.9826593
8	0x403a2897	2.9087274
9	0x403b2cee	2.9246173
10	0x403da2fe	2.9630733
11	0x403f38e7	2.987848
12	0x403b45b4	2.9261293
13	0x403a1674	2.9076204
14	0x403a8436	2.9143195
15	0x403b87e1	2.9301684
16	0x403e7971	2.9761622
17	0x403c11a4	2.9385767
18	0x403ca0e0	2.947319
19	0x403d0d77	2.9539468
20	0x403c74c1	2.944626
21	0x403b66e9	2.9281561
22	0x403aa439	2.9162734
23	0x403c9be5	2.947015
24	0x403c7825	2.944833
25	0x40386407	2.8811052
26	0x403abc5e	2.917747
27	0x403e31fd	2.971801
28	0x403bf73b	2.9369648
29	0x403c9b95	2.946996
30	0x403c0612	2.9378705
31	0x403ce727	2.9516084
32	0x403cadf1	2.9481165
33	0x403f4799	2.988745
34	0x403f7044	2.9912271
35	0x4039501e	2.895515
36	0x40396c45	2.8972332
37	0x4038ad8c	2.8855925
38	0x40385a12	2.8804975
39	0x4038cfaa	2.8876748
40	0x403f6a86	2.9908767
41	0x404224e3	3.0335014
42	0x403b141d	2.9231026
43	0x403cfb48	2.952837
44	0x403b1b30	2.9235344
45	0x4039a39d	2.9006112
46	0x403b3959	2.9253752
47	0x403d1936	2.9546638
48	0x404079e5	3.0074399
49	0x403a65e3	2.9124687
50	0x403b36a5	2.9252102
51	0x4041a6c8	3.0258045
52	0x403e941c	2.9777899
53	0x403d3648	2.956438
54	0x403ae9b1	2.9205134
55	0x40397714	2.897893
56	0x403920b7	2.8926218
57	0x403901b2	2.8907285
58	0x4039990a	2.8999658
59	0x4039c45a	2.9026093
60	0x403d7829	2.960459
61	0x403fb692	2.9955182
62	0x403f89a5	2.9927762
63	0x4038ff45	2.8905804
64	0x403ab798	2.9174557
65	0x40410def	3.0164754
66	0x4040c0bc	3.0117636
67	0x403ae61b	2.9202945
68	0x403aab38	2.9167004
69	0x403c7ebc	2.9452353
70	0x403b7dde	2.9295573
71	0x403ac3e1	2.9182055
72	0x403edce9	2.9822333
73	0x403d9ca5	2.9626858
74	0x403ab03f	2.9170072
75	0x403be0a6	2.9355865
76	0x403d95d3	2.9622695
77	0x403ad009	2.9189475
78	0x403e27f3	2.9711883
79	0x403de5bb	2.9671466
80	0x4040a487	3.010042
81	0x403d8b25	2.9616177
82	0x403bda17	2.9351861
83	0x403eeb6a	2.9831185
84	0x4040669b	3.0062625
85	0x403e5789	2.9740927
86	0x4037f24d	2.8741639
87	0x40384eca	2.879809
88	0x403ae7f5	2.9204075
89	0x4038853e	2.8831325
90	0x403d23dc	2.9553137
91	0x403c7bb8	2.9450512
92	0x4039a8a2	2.9009175
93	0x403d805a	2.960959
94	0x4039b6b3	2.901776
95	0x403cd746	2.9506392
96	0x403af5e5	2.9212582
97	0x403b0823	2.9223716
98	0x4039cfb0	2.9033012
99	0x403eb811	2.9799845
100	0x403d3e87	2.9569414
101	0x403eeb76	2.9831214
102	0x403d8e78	2.9618206
103	0x403dbd4f	2.9646795
104	0x403a4d0f	2.9109533
105	0x4038477b	2.8793628
106	0x40376cf6	2.8660254
107	0x4038c704	2.887147
108	0x403d75b6	2.9603095
109	0x4038dd34	2.8885012
110	0x40382586	2.8772902
111	0x403a99c1	2.9156344
112	0x403db97c	2.964446
113	0x403d54ed	2.9583085
114	0x403a444e	2.910419
115	0x403ffd6d	2.999843
116	0x403c45b7	2.941755
117	0x4039dfee	2.9042926
118	0x40400303	3.0001838
119	0x403b3d2b	2.9256084
120	0x403abff1	2.9179652
121	0x403b77db	2.9291904
122	0x403a9798	2.9155025
123	0x403c1b44	2.9391642
124	0x403a34d2	2.909474
125	0x403808bb	2.8755329
126	0x403a3dc9	2.910021
127	0x40398d7e	2.899261
128	0x4038f416	2.8898978
129	0x403bc968	2.9341679
130	0x403c4e6f	2.9422872
131	0x40400530	3.0003166
132	0x4039c65e	2.9027324
133	0x403c930c	2.946475
134	0x403c4cb1	2.9421809
135	0x403f161a	2.985724
136	0x403bb276	2.9327674
137	0x403ddff1	2.9667933
138	0x403d79dd	2.960563
139	0x403a70f8	2.913145
140	0x403da515	2.9632008
141	0x403b63a5	2.9279568
142	0x4038fc16	2.890386
143	0x403bd139	2.934645
144	0x4040635a	3.006064
145	0x403978c3	2.8979957
146	0x403a59a0	2.9117203
147	0x403dd277	2.9659708
148	0x403e3725	2.9721158
149	0x403b0463	2.9221427
150	0x403ab110	2.917057
151	0x403a2928	2.908762
152	0x4039fbd7	2.905996
153	0x403cb28d	2.9483979
154	0x403d59ea	2.958613
155	0x403901f4	2.8907442
156	0x4040f207	3.0147722
157	0x4039eadb	2.9049594
158	0x403aa8d6	2.916555
159	0x403b9b79	2.9313643
160	0x403d3230	2.9561882
161	0x4039c49f	2.9026258
162	0x403b30db	2.924857
163	0x403d8451	2.961201
164	0x403a48dc	2.910697
165	0x403968f3	2.8970306
166	0x4038d7d9	2.8881743
167	0x403b5e2d	2.927623
168	0x403bc527	2.9339082
169	0x403d495e	2.957603
170	0x403c3b63	2.9411247
171	0x4039fb71	2.9059718
172	0x403f441b	2.9885318
173	0x40396561	2.8968127
174	0x403da4e5	2.9631894
175	0x403ca710	2.9476967
176	0x403c28b7	2.939985
177	0x403ca38a	2.9474816
178	0x403cae60	2.948143
179	0x403cc7d6	2.949697
180	0x403a6504	2.9124155
181	0x403e638a	2.9748254
182	0x403b0e26	2.9227386
183	0x403d65cc	2.9593382
184	0x403e43b6	2.9728827
185	0x40399e07	2.9002702
186	0x403b912c	2.9307356
187	0x403a666d	2.9125016
188	0x403ed593	2.9817855
189	0x403d5a4b	2.958636
190	0x403c1b75	2.9391758
191	0x403ecbfd	2.9812005
192	0x403bc118	2.9336605
193	0x4040da75	3.0133336
194	0x40399438	2.8996716
195	0x4038f269	2.8897955
196	0x4040da13	3.0133102
197	0x403a1653	2.9076126
198	0x4038a959	2.8853362
199	0x403e300e	2.971683
200	0x403941b3	2.894635
201	0x403a72d1	2.9132578
202	0x4040c2fb	3.0119007
203	0x403c13d0	2.9387093
204	0x403bfd30	2.9373283
205	0x403a70cc	2.9131346
206	0x4037f06a	2.8740487
207	0x403abfee	2.9179645
208	0x4038ffe4	2.8906183
209	0x40378ff8	2.8681622
210	0x40395f33	2.8964355
211	0x403972a4	2.897622
212	0x403a49f6	2.9107642
213	0x4039b316	2.9015555
214	0x403a5354	2.911336
215	0x403bfd30	2.9373283
216	0x403fde87	2.997957
217	0x403bd620	2.9349442
218	0x403e6904	2.9751596
219	0x4039308b	2.8935878
220	0x40397f33	2.8983886
221	0x403bbead	2.933513
222	0x403aff52	2.9218335
223	0x40376669	2.8656256
224	0x403ea406	2.9787612
225	0x403b4fee	2.9267535
226	0x403af6f0	2.9213219
227	0x40394102	2.8945928
228	0x4038ee1c	2.889533
229	0x40394af0	2.8951988
230	0x403e2460	2.9709702
231	0x403c8bb8	2.9460278
232	0x403f67dd	2.9907143
233	0x403bfcb5	2.937299
234	0x403c1696	2.9388785
235	0x403e51a4	2.973733
236	0x403bc470	2.9338646
237	0x403f6200	2.9903564
238	0x403f6d4a	2.9910455
239	0x403f8b54	2.992879
240	0x4038fc01	2.890381
241	0x403b0c93	2.9226425
242	0x403b4ba6	2.9264922
243	0x403a34d3	2.9094741
244	0x403d7e4a	2.960833
245	0x403a8533	2.9143798
246	0x403a4fbf	2.9111173
247	0x403a69eb	2.9127147
248	0x403e4850	2.9731636
249	0x403e2978	2.971281
250	0x403c46ca	2.9418206
251	0x403a4784	2.910615
252	0x403a0803	2.906739
253	0x403d9944	2.9624796
254	0x403d6d33	2.95979
255	0x403aef88	2.9208698

_guide.locs.z_sr_groups_factors_unconstrained f4 [962, 50]
0	0xc00e2b02	-2.221375
1	0xc00e107d	-2.2197564
2	0xc009614e	-2.146564
3	0xc0117e74	-2.273343
4	0xc00f58b2	-2.2397885
5	0xc00c07be	-2.1879725
6	0xc00855f4	-2.1302462
7	0xc0052512	-2.0803876
8	0xc009f676	-2.1556678
9	0xc0092d25	-2.1433804
10	0xc00586c1	-2.0863497
11	0xc00abd9c	-2.1678228
12	0xc00a74c2	-2.1633763
13	0xc007ce7b	-2.1219776
14	0xc0070ba1	-2.1100848
15	0xc00d0d16	-2.2039237
16	0xc00b1a18	-2.1734676
17	0xc00d1e0d	-2.2049592
18	0xc00b0dda	-2.1727204
19	0xc00d0404	-2.20337
20	0xc00431dc	-2.0655432
21	0xc006566e	-2.0990252
22	0xc00bb776	-2.1830726
23	0xc00b94eb	-2.1809642
24	0xc00ca5a6	-2.1976104
25	0xc00b8ba8	-2.180399
26	0xc00c2048	-2.1894703
27	0xc002d69d	-2.044349
28	0xc007492e	-2.1138415
29	0xc0083c80	-2.1286926
30	0xc007e991	-2.1236308
31	0xc00bd3cc	-2.184802
32	0xc004c866	-2.0747313
33	0xc00a5e24	-2.161996
34	0xc0086319	-2.1310484
35	0xc0100037	-2.250013
36	0xc0098f0e	-2.1493564
37	0xc0099fd6	-2.1503806
38	0xc0094c14	-2.1452684
39	0xc00503f1	-2.0783656
40	0xc008b5cd	-2.1360962
41	0xc00ecbe0	-2.2311935
42	0xc005a443	-2.0881507
43	0xc00a89bb	-2.1646564
44	0xc0097dbf	-2.1483
45	0xc0069dff	-2.1033933
46	0xc00c8c89	-2.1960776
47	0xc00ad228	-2.169077
48	0xc00c2248	-2.1895924
49	0xc005c479	-2.0901167
50	0xc06ce7f2	-3.7016568
51	0xc06cb94b	-3.6988094
52	0xc0714e30	-3.7703972
53	0xc06b06e6	-3.672296
54	0xc06ddbb8	-3.7165356
55	0xc0716ae0	-3.7721481
56	0xc06bbd91	-3.6834452
57	0xc070b5fe	-3.761108
58	0xc06f659c	-3.7405767
59	0xc0700603	-3.750367
60	0xc06c4715	-3.6918385
61	0xc06c77be	-3.6948085
62	0xc06e3e06	-3.7225356
63	0xc06f0680	-3.7347717
64	0xc0717800	-3.7729492
65	0xc06c2a16	-3.6900687
66	0xc06dd851	-3.716328
67	0xc06be591	-3.6858866
68	0xc06e078d	-3.7192109
69	0xc06f2fa6	-3.7372832
70	0xc06ed157	-3.731527
71	0xc071c254	-3.7774858
72	0xc06d9e0b	-3.7127712
73	0xc06ca2a0	-3.6974258
74	0xc070ffb9	-3.765608
75	0xc06ec047	-3.7304857
76	0xc06640f8	-3.5977154
77	0xc06d55a7	-3.7083528
78	0xc072b330	-3.7921867
79	0xc067ddff	-3.6229246
80	0xc0707085	-3.7568676
81	0xc07966c7	-3.896898
82	0xc06e1cfd	-3.7205193
83	0xc06d48c5	-3.7075665
84	0xc0716c20	-3.7722244
85	0xc0719471	-3.7746851
86	0xc06eb58d	-3.729831
87	0xc06ea2c0	-3.7286835
88	0xc06d19fe	-3.7047114
89	0xc06d40b8	-3.707075
90	0xc07116ef	-3.7670248
91	0xc06ea12a	-3.7285867
92	0xc068d500	-3.6380005
93	0xc0702b3e	-3.7526393
94	0xc06faa61	-3.744774
95	0xc06c64e0	-3.693657
96	0xc06e06ab	-3.719157
97	0xc06c3a0f	-3.6910436
98	0xc070e228	-3.7638035
99	0xc0675b14	-3.614934
100	0xc05184da	-3.2737336
101	0xc04f7cc7	-3.2419908
102	0xc058a047	-3.3847826
103	0xc0570cd3	-3.3601577
104	0xc0505d12	-3.2556806
105	0xc0508c94	-3.2585802
106	0xc04f531d	-3.2394478
107	0xc050d77d	-3.2631524
108	0xc053a807	-3.3071306
109	0xc053fcd0	-3.3123055
110	0xc056de34	-3.3573122
111	0xc053bbfc	-3.3083487
112	0xc0559acd	-3.3375733
113	0xc050069f	-3.2504041
114	0xc0524efa	-3.2860703
115	0xc04fb11c	-3.245185
116	0xc04f8a4c	-3.242816
117	0xc0533dba	-3.3006425
118	0xc05376f1	-3.3041346
119	0xc04f8127	-3.2422578
120	0xc05268d3	-3.287648
121	0xc0525b4e	-3.2868228
122	0xc04fb73f	-3.2455595
123	0xc055c79d	-3.3403084
124	0xc053a663	-3.3070304
125	0xc0501654	-3.2513628
126	0xc050c8da	-3.262259
127	0xc052f917	-3.2964532
128	0xc0535ff6	-3.302732
129	0xc050b771	-3.2611964
130	0xc04f81d5	-3.2422993
131	0xc054e2d0	-3.3263435
132	0xc057b9be	-3.3707118
133	0xc0503ee1	-3.2538378
134	0xc0544948	-3.3169727
135	0xc04e8c11	-3.227299
136	0xc04f78ac	-3.2417402
137	0xc04f129c	-3.2355108
138	0xc05470fe	-3.3193965
139	0xc053044d	-3.2971375
140	0xc0542eb8	-3.3153515
141	0xc0523d4b	-3.284991
142	0xc04a49b6	-3.160749
143	0xc050b9e5	-3.261346
144	0xc05289dc	-3.2896643
145	0xc05163e6	-3.2717223
146	0xc05081ac	-3.2579145
147	0xc0527538	-3.2884045
148	0xc052d8e9	-3.2944891
149	0xc05418c6	-3.314012
150	0xc063d98c	-3.560153
151	0xc063feb4	-3.5624208
152	0xc063257b	-3.5491626
153	0xc06342fe	-3.5509639
154	0xc06693cc	-3.6027708
155	0xc062da06	-3.544557
156	0xc05f4e72	-3.489163
157	0xc0659c9c	-3.5876837
158	0xc0648465	-3.5705807
159	0xc063bbcd	-3.5583375
160	0xc064c026	-3.5742278
161	0xc0605c89	-3.505648
162	0xc05fdc7f	-3.497833
163	0xc0601014	-3.5009813
164	0xc0654df6	-3.5828834
165	0xc0644b15	-3.5670826
166	0xc063f1cc	-3.561633
167	0xc063df6d	-3.5605118
168	0xc06082d8	-3.507986
169	0xc0656396	-3.5842032
170	0xc05f4342	-3.48848
171	0xc06600eb	-3.593806
172	0xc063b661	-3.5580065
173	0xc064ac0e	-3.5730014
174	0xc0696ca1	-3.6472552
175	0xc067bd2d	-3.6209214
176	0xc0679184	-3.6182566
177	0xc065fa8e	-3.5934176
178	0xc06b7d31	-3.679516
179	0xc064c56b	-3.5745494
180	0xc0613a15	-3.51917
181	0xc068d825	-3.6381924
182	0xc0602a5c	-3.5025854
183	0xc0633a15	-3.55042
184	0xc06401b7	-3.5626047
185	0xc05ffe25	-3.4998868
186	0xc061de76	-3.529203
187	0xc06350d5	-3.5518086
188	0xc060eefc	-3.5145864
189	0xc0620fc5	-3.5322125
190	0xc0609b65	-3.5094845
191	0xc0680777	-3.6254556
192	0xc066554c	-3.598956
193	0xc064f080	-3.577179
194	0xc06117f5	-3.5170872
195	0xc066aee8	-3.6044254
196	0xc06503b8	-3.578352
197	0xc06230c7	-3.5342271
198	0xc05fe243	-3.498185
199	0xc0638ea6	-3.5555816
200	0xc06bc5eb	-3.683955
201	0xc06db9d9	-3.7144682
202	0xc0680b5f	-3.625694
203	0xc06affce	-3.671863
204	0xc06abf82	-3.6679387
205	0xc06b7986	-3.6792922
206	0xc06cbffa	-3.6992173
207	0xc0685fc1	-3.6308444
208	0xc066a8b5	-3.604047
209	0xc06c26d5	-3.68987
210	0xc06955b4	-3.645856
211	0xc06719d3	-3.6109512
212	0xc06a9d13	-3.665837
213	0xc068294e	-3.627521
214	0xc0674a22	-3.6138997
215	0xc0659584	-3.5872507
216	0xc06da40d	-3.7131379
217	0xc06aa1a8	-3.6661167
218	0xc068772a	-3.6322732
219	0xc06c5407	-3.6926286
220	0xc06b638b	-3.6779506
221	0xc0681dc1	-3.626816
222	0xc0682dea	-3.6278024
223	0xc06a4d9c	-3.660987
224	0xc06931d9	-3.6436675
225	0xc067a60b	-3.6195095
226	0xc068cbb9	-3.6374342
227	0xc06725d2	-3.6116834
228	0xc06d6d7f	-3.709808
229	0xc0693ee0	-3.6444626
230	0xc06bef2a	-3.6864724
231	0xc06d9786	-3.7123733
232	0xc06c6664	-3.6937494
233	0xc06bc473	-3.6838653
234	0xc06ed570	-3.7317772
235	0xc068da6e	-3.638332
236	0xc06a0d49	-3.6570609
237	0xc06e8ca4	-3.727334
238	0xc06c53e6	-3.6926208
239	0xc06331e5	-3.5499203
240	0xc0675b82	-3.6149602
241	0xc069ba1b	-3.651984
242	0xc065e43f	-3.592056
243	0xc069596f	-3.6460836
244	0xc06baaf6	-3.6823096
245	0xc06a5374	-3.6613436
246	0xc06ea2fc	-3.7286978
247	0xc0698a35	-3.6490605
248	0xc06652fb	-3.5988147
249	0xc06a6b61	-3.662804
250	0xc07c375a	-3.9408784
251	0xc078c8f7	-3.887266
252	0xc0757c39	-3.835707
253	0xc077b4fd	-3.8704216
254	0xc0789d3e	-3.8845973
255	0xc07e316f	-3.9717672

_guide.locs.k_r_factors_per_groups_unconstrained f4 [50, 1]
0	0x40129712	2.2904706
1	0x4014d2a4	2.3253565
2	0x40150374	2.3283358
3	0x4015e3b1	2.3420222
4	0x40157450	2.3352242
5	0x40154e86	2.3329177
6	0x401445c6	2.3167586
7	0x40151929	2.3296607
8	0x4014e799	2.3266356
9	0x4013a70c	2.3070707
10	0x40166742	2.3500524
11	0x4015df00	2.3417358
12	0x4015358c	2.3313932
13	0x401550b2	2.3330503
14	0x40150f26	2.3290496
15	0x4016adee	2.3543658
16	0x40154220	2.332161
17	0x40146082	2.3183904
18	0x4014ad51	2.3230784
19	0x4014553e	2.3177028
20	0x4015f4c0	2.3430634
21	0x40147e59	2.3202116
22	0x4013bee3	2.3085258
23	0x40161073	2.344754
24	0x4013a24a	2.3067803
25	0x4014f1e3	2.3272636
26	0x40158fd6	2.336904
27	0x4013ad72	2.3074613
28	0x401490ae	2.3213305
29	0x4015fafa	2.3434434
30	0x4015b0ec	2.3389235
31	0x40151fba	2.3300614
32	0x4013e863	2.3110588
33	0x40144b0e	2.317081
34	0x4014ba27	2.3238618
35	0x4015bd6e	2.3396869
36	0x40138542	2.3050084
37	0x4014ebd7	2.3268945
38	0x4013e8de	2.311088
39	0x401669b8	2.3502026
40	0x4014d59a	2.3255372
41	0x40159d04	2.3377085
42	0x40157fc0	2.3359222
43	0x40153105	2.331117
44	0x40137b06	2.3043838
45	0x4015b9d8	2.339468
46	0x40157234	2.3350954
47	0x40172d43	2.3621376
48	0x401642cc	2.347827
49	0x4015197c	2.3296804

_guide.locs.x_fr_group2fact_unconstrained f4 [50, 17]
0	0xc0449492	-3.071568
1	0xc04185cb	-3.023791
2	0xc040c63c	-3.0120993
3	0xc03f9acb	-2.9938228
4	0xc042ce2d	-3.043834
5	0xc02aaf33	-2.6669433
6	0xc040ec18	-3.01441
7	0xc03fa8e2	-2.9946828
8	0xc03dc498	-2.9651241
9	0xc03ec1ca	-2.980578
10	0xc0437216	-3.0538383
11	0xc04400ba	-3.0625443
12	0xc03fa95d	-2.994712
13	0xc03e2517	-2.9710138
14	0xc044c4ae	-3.0745044
15	0xc03c3355	-2.940633
16	0xc0420693	-3.0316513
17	0xc042bc25	-3.0427334
18	0xc043d1ca	-3.0596795
19	0xc0415adc	-3.0211706
20	0xc041103d	-3.016616
21	0xc0431215	-3.0479786
22	0xc029ca2d	-2.6529648
23	0xc03f56ad	-2.9896653
24	0xc03e3ba9	-2.9723914
25	0xc04234c4	-3.0344706
26	0xc0403e04	-3.0037851
27	0xc041a085	-3.0254223
28	0xc042346f	-3.0344503
29	0xc0424c04	-3.0358896
30	0xc03d6cf9	-2.9597762
31	0xc0428c7e	-3.039825
32	0xc03c7dec	-2.9451857
33	0xc041526a	-3.0206552
34	0xc0449273	-3.0714386
35	0xc044079c	-3.0629644
36	0xc0474d27	-3.114084
37	0xc0413902	-3.0191045
38	0xc045b71f	-3.0893018
39	0xc02bcb6c	-2.684291
40	0xc0432c55	-3.0495808
41	0xc042aee2	-3.041924
42	0xc0446b63	-3.0690544
43	0xc0435b36	-3.052442
44	0xc0463702	-3.0971074
45	0xc044fa11	-3.0777628
46	0xc0436ffc	-3.05371
47	0xc03f1cb3	-2.9861267
48	0xc0431238	-3.047987
49	0xc0422126	-3.0332732
50	0xc044ef03	-3.077088
51	0xc0454891	-3.082554
52	0xc0463488	-3.0969563
53	0xc0469ce3	-3.1033256
54	0xc040a9a0	-3.010353
55	0xc0465707	-3.0990617
56	0xc02cc952	-2.6997876
57	0xc0438596	-3.0550284
58	0xc04187a1	-3.0239031
59	0xc043fbb2	-3.0622373
60	0xc042551b	-3.0364444
61	0xc042ebea	-3.045649
62	0xc044c5e8	-3.0745792
63	0xc043af53	-3.057576
64	0xc03ec843	-2.980973
65	0xc043f232	-3.0616574
66	0xc0403ef2	-3.0038419
67	0xc04402de	-3.062675
68	0xc047263a	-3.1117082
69	0xc0423c4d	-3.0349305
70	0xc04363f7	-3.0529764
71	0xc0414295	-3.0196888
72	0xc046664d	-3.099994
73	0xc02a9986	-2.6656203
74	0xc0400b1b	-3.0006778
75	0xc041670b	-3.0219142
76	0xc042b6da	-3.0424104
77	0xc03f71cf	-2.9913213
78	0xc0435abe	-3.0524135
79	0xc0454f51	-3.082966
80	0xc04390f2	-3.0557218
81	0xc040283e	-3.0024562
82	0xc0423009	-3.0341818
83	0xc03de407	-2.9670427
84	0xc044d07c	-3.0752249
85	0xc041a171	-3.0254786
86	0xc04287fd	-3.03955
87	0xc0407582	-3.007172
88	0xc04108e8	-3.0161686
89	0xc0436811	-3.0532267
90	0xc02cae0c	-2.698123
91	0xc03fc1f1	-2.9962122
92	0xc040e3cc	-3.0139036
93	0xc040a0e2	-3.0098195
94	0xc0410410	-3.015873
95	0xc0455263	-3.0831535
96	0xc03f764f	-2.991596
97	0xc0417eca	-3.0233636
98	0xc03ecb12	-2.9811444
99	0xc042feb9	-3.046797
100	0xc03ed007	-2.981447
101	0xc041f82c	-3.0307722
102	0xc0471ad0	-3.1110115
103	0xc045fd40	-3.0935822
104	0xc0449ddc	-3.072135
105	0xc0421237	-3.0323617
106	0xc044d30c	-3.0753813
107	0xc02d583e	-2.7085109
108	0xc0437279	-3.0538619
109	0xc0438ccb	-3.0554683
110	0xc047c382	-3.1213078
111	0xc0439f94	-3.0566149
112	0xc04501fe	-3.0782466
113	0xc0462f5c	-3.0966406
114	0xc044057a	-3.0628343
115	0xc0424493	-3.0354354
116	0xc0450c67	-3.078882
117	0xc0403864	-3.0034418
118	0xc0427c73	-3.0388458
119	0xc040b205	-3.0108654
120	0xc04099f4	-3.0093966
121	0xc0412881	-3.0180972
122	0xc03d7dc5	-2.9608014
123	0xc0425b9c	-3.0368414
124	0xc02adaa6	-2.6695952
125	0xc04077de	-3.007316
126	0xc03de93b	-2.9673603
127	0xc042627a	-3.0372605
128	0xc041c59f	-3.0276868
129	0xc042f08f	-3.0459325
130	0xc0406e7e	-3.006744
131	0xc0415841	-3.0210116
132	0xc0392905	-2.8931286
133	0xc03fddf5	-2.9979222
134	0xc03afb6b	-2.9215953
135	0xc03fb6ec	-2.9955397
136	0xc048d38d	-3.137912
137	0xc0470e4c	-3.1102476
138	0xc0474ec4	-3.1141825
139	0xc0453db0	-3.08189
140	0xc047a4f5	-3.1194432
141	0xc02ea677	-2.7289102
142	0xc04462c1	-3.0685275
143	0xc0472376	-3.1115394
144	0xc0484d4e	-3.1297183
145	0xc04372fe	-3.0538936
146	0xc0470c48	-3.1101246
147	0xc047734a	-3.1164117
148	0xc0468ec7	-3.1024644
149	0xc042c6c5	-3.043382
150	0xc04666c0	-3.1000214
151	0xc044bdd7	-3.074087
152	0xc0453f11	-3.0819743
153	0xc046ed5c	-3.1082373
154	0xc046ccf3	-3.106259
155	0xc04718b1	-3.110882
156	0xc0435f06	-3.0526748
157	0xc0473302	-3.1124883
158	0xc02e54a5	-2.7239163
159	0xc044ebc9	-3.0768912
160	0xc044e426	-3.076425
161	0xc046478d	-3.098117
162	0xc0424b2f	-3.0358388
163	0xc04914f3	-3.1419036
164	0xc04751c2	-3.114365
165	0xc045ec16	-3.0925345
166	0xc04424f2	-3.064755
167	0xc044f1a4	-3.0772486
168	0xc042b503	-3.042298
169	0xc046572d	-3.0990708
170	0xc0422e60	-3.0340805
171	0xc041a9aa	-3.0259805
172	0xc04308ec	-3.0474195
173	0xc03e4087	-2.9726884
174	0xc0439311	-3.0558512
175	0xc02af991	-2.6714823
176	0xc03fa6ca	-2.994555
177	0xc03f63ae	-2.990459
178	0xc0417b61	-3.0231555
179	0xc03fe69a	-2.9984498
180	0xc04271de	-3.0382
181	0xc0426ae8	-3.037775
182	0xc041c42c	-3.0275984
183	0xc03c1f1d	-2.939399
184	0xc040452f	-3.0042226
185	0xc03acd5b	-2.918784
186	0xc0416d87	-3.02231
187	0xc0443570	-3.0657616
188	0xc043bb64	-3.0583124
189	0xc0437fe5	-3.054681
190	0xc03f2b26	-2.9870086
191	0xc0443c10	-3.066166
192	0xc02ac0ca	-2.668017
193	0xc0413132	-3.0186276
194	0xc04040a6	-3.0039458
195	0xc041234c	-3.0177794
196	0xc040a930	-3.0103264
197	0xc043e04f	-3.0605657
198	0xc0444d1e	-3.0672069
199	0xc0418559	-3.023764
200	0xc03d6968	-2.9595585
201	0xc0431a3a	-3.0484757
202	0xc040335c	-3.0031347
203	0xc040a411	-3.0100138
204	0xc047621c	-3.1153631
205	0xc042b7bf	-3.042465
206	0xc04507b7	-3.0785959
207	0xc04216fd	-3.032653
208	0xc046c514	-3.1057787
209	0xc02aa78f	-2.666477
210	0xc047bd0c	-3.1209135
211	0xc041f1f7	-3.0303934
212	0xc0449c85	-3.0720532
213	0xc0423117	-3.0342462
214	0xc045a9d6	-3.088491
215	0xc046e181	-3.1075137
216	0xc044473c	-3.0668478
217	0xc03ff4ed	-2.999324
218	0xc0452979	-3.0806563
219	0xc041e48e	-3.0295749
220	0xc04403f7	-3.062742
221	0xc0442740	-3.0648956
222	0xc044c1f1	-3.0743372
223	0xc04164d5	-3.0217793
224	0xc041ca58	-3.027975
225	0xc0449afc	-3.0719595
226	0xc02f24e0	-2.7366257
227	0xc040745b	-3.0071018
228	0xc03ef1f4	-2.9835176
229	0xc04123a2	-3.0177999
230	0xc03e99a7	-2.9781282
231	0xc043580e	-3.0522494
232	0xc0457ef0	-3.0858727
233	0xc042a082	-3.0410466
234	0xc03e560a	-2.9740014
235	0xc0428450	-3.0393257
236	0xc040a61d	-3.0101388
237	0xc04174c9	-3.022753
238	0xc042dc53	-3.0446975
239	0xc04170f6	-3.0225196
240	0xc0436b48	-3.053423
241	0xc040a881	-3.0102847
242	0xc0445ce6	-3.06817
243	0xc02c5ea8	-2.6932774
244	0xc0422f34	-3.034131
245	0xc0411b76	-3.017301
246	0xc042f1aa	-3.046
247	0xc03fa52f	-2.994457
248	0xc042eed8	-3.0458279
249	0xc0424d04	-3.0359507
250	0xc0429f3e	-3.0409694
251	0xc03ba46f	-2.9319112
252	0xc0433321	-3.0499957
253	0xc03c6c0e	-2.9440951
254	0xc0405676	-3.0052772
255	0xc042e4d5	-3.0452168

_guide.locs.w_sf_unconstrained f4 [962, 17]
0	0xbeedd0b3	-0.46448287
1	0xbf00952f	-0.50227636
2	0xbe977935	-0.2958466
3	0xbe5e4935	-0.21707614
4	0xbe99cc3a	-0.30038625
5	0x3eb8b4eb	0.3607553
6	0xbea1a11c	-0.3156823
7	0xbe9a0fc6	-0.3009016
8	0xbe071cd8	-0.13194597
9	0x3d20e531	0.039281074
10	0xbeff443b	-0.49856743
11	0xbed6e9bf	-0.4197521
12	0x3ea7d7d2	0.32781845
13	0xbee9c73c	-0.45659816
14	0xbed469b8	-0.41486907
15	0xbef6b34a	-0.48183662
16	0xbedaa14c	-0.42701185
17	0xc018ee86	-2.3895583
18	0xc01f6fbe	-2.4911952
19	0xc0166b77	-2.3503091
20	0xc0103d80	-2.2537537
21	0xc0186ee2	-2.3817677
22	0xbfd9e748	-1.7023706
23	0xc021718a	-2.5225549
24	0xc01e0842	-2.469254
25	0xbff5dc5a	-1.9207871
26	0xbfdf8975	-1.7463824
27	0xc023f2d3	-2.5616958
28	0xc0146531	-2.3186762
29	0xc01e324a	-2.4718194
30	0xc016f09c	-2.3584356
31	0xc018ce69	-2.3875983
32	0xc01819f1	-2.3765833
33	0xc02118a4	-2.517129
34	0xbfeaa75d	-1.8332325
35	0xbfde8f0a	-1.7387402
36	0xbfd9537c	-1.6978602
37	0xbfc86df0	-1.565855
38	0xbfd737b4	-1.6813874
39	0xbf5fe019	-0.8745132
40	0xbfd907f5	-1.6955553
41	0xbfcec13d	-1.6152722
42	0xbfb8400c	-1.4394546
43	0xbfa598f3	-1.2937301
44	0xbfe6d16b	-1.8032659
45	0xbfde5363	-1.7369198
46	0xbfad62fd	-1.3545834
47	0xbfcb746a	-1.5894902
48	0xbfddd1a7	-1.7329606
49	0xbfce974d	-1.6139923
50	0xbfd881a1	-1.691456
51	0xc00a7c3e	-2.1638331
52	0xc00b7bb9	-2.1794264
53	0xbfe6cada	-1.8030655
54	0xc023e2df	-2.560722
55	0xc00ca54f	-2.1975896
56	0xbfcd15b9	-1.6022254
57	0xbfe7a76a	-1.8097966
58	0xbfe1bed8	-1.7636366
59	0xc013a52c	-2.3069563
60	0xc008ce86	-2.1376052
61	0xc0117530	-2.2727776
62	0xc006b04c	-2.1045103
63	0xc007890c	-2.1177397
64	0xbfdf4df2	-1.7445662
65	0xbff9d89b	-1.9519228
66	0xbfe86503	-1.8155826
67	0xbfef4fb7	-1.8696202
68	0xc01812b5	-2.3761418
69	0xc014f9d1	-2.3277476
70	0xc01c1149	-2.438555
71	0xbfed922c	-1.8560233
72	0xc00b8e2f	-2.1805532
73	0xbf74897a	-0.9552227
74	0xc0155a71	-2.333645
75	0xc016c34d	-2.3556702
76	0xbfff8f71	-1.996565
77	0xbff00199	-1.8750488
78	0xc015a460	-2.3381577
79	0xc01dd5b9	-2.4661696
80	0xc011294e	-2.268146
81	0xc014060e	-2.3128695
82	0xc0172765	-2.3617795
83	0xc00d0d13	-2.203923
84	0xc019ac05	-2.4011242
85	0xc01dda7e	-2.4664607
86	0xc0277cf7	-2.6170022
87	0xc02c467f	-2.6918027
88	0xc024c49f	-2.5745008
89	0xc02f7f0b	-2.742129
90	0xbffd97d5	-1.981196
91	0xc02c313d	-2.6905053
92	0xc02a8a60	-2.6646957
93	0xc0319d37	-2.7752206
94	0xc023c501	-2.5588992
95	0xc024b6e6	-2.5736632
96	0xc023a886	-2.5571609
97	0xc02605e3	-2.5941093
98	0xc02532c7	-2.5812242
99	0xc0268915	-2.6021168
100	0xc0279081	-2.6181948
101	0xc023ab06	-2.5573134
102	0xbfa42e9e	-1.2826726
103	0xbfae8e66	-1.3637207
104	0xbfaeeaa0	-1.3665352
105	0xbf7f6bb4	-0.99773717
106	0xbf9cad31	-1.2240354
107	0xbe0f7c9f	-0.14012383
108	0xbfb99d07	-1.4501046
109	0xbfb9a51c	-1.4503512
110	0xbf874e3a	-1.0570748
111	0xbf52f5c0	-0.82406235
112	0xbfa666b0	-1.3000088
113	0xbfaf8511	-1.3712484
114	0xbfa19d05	-1.2626044
115	0xbfad8b85	-1.3558203
116	0xbfad5883	-1.3542637
117	0xbfafe008	-1.3740244
118	0xbfb23f07	-1.3925484
119	0xbf22bf77	-0.635734
120	0xbf17b6e8	-0.5926347
121	0xbeeedc3f	-0.4665241
122	0xbf3563a1	-0.70855147
123	0xbf16c2ce	-0.58891
124	0xbe6bfe36	-0.23046193
125	0xbeb95af2	-0.36202198
126	0xbea4b1ba	-0.32166845
127	0xbf1c5dca	-0.6108061
128	0xbef13fe9	-0.47119072
129	0xbf22f93f	-0.6366157
130	0xbf1116ae	-0.5667523
131	0xbeceb00b	-0.40368685
132	0xbe7b4f15	-0.24541886
133	0xbf04d6e5	-0.51890403
134	0xbea8b419	-0.32949904
135	0xbf077228	-0.52908564
136	0xc0134c06	-2.301515
137	0xc006cf0a	-2.1063867
138	0xc0057a56	-2.0855918
139	0xc00739c3	-2.1129005
140	0xc00b0da3	-2.1727073
141	0xc008d505	-2.1380017
142	0xc005eb1e	-2.0924754
143	0xc00205f2	-2.0316129
144	0xc003740b	-2.0539577
145	0xbff3441a	-1.9005158
146	0xc00e7ba5	-2.2262967
147	0xc0086976	-2.1314368
148	0xbffb15c5	-1.9616019
149	0xc0014208	-2.0196552
150	0xc007ec22	-2.1237874
151	0xc0071b61	-2.111046
152	0xc0091d2c	-2.1424055
153	0xbfda1aec	-1.7039466
154	0xbfd8ba8d	-1.6931931
155	0xbfe78875	-1.8088518
156	0xbf92425d	-1.1426502
157	0xbfc027ee	-1.5012186
158	0xbf011f00	-0.5043793
159	0xbfe7a0fa	-1.8096001
160	0xbfe2b520	-1.7711525
161	0xbfa95620	-1.3229408
162	0xbfb0afa2	-1.3803599
163	0xbfdf65de	-1.7452962
164	0xbfdebaa3	-1.7400707
165	0xbfd1b89f	-1.6384467
166	0xbfd6a3cc	-1.6768737
167	0xbfdf276b	-1.7433904
168	0xbfcd6119	-1.6045257
169	0xbfd95abb	-1.6980814
170	0xbf8b6842	-1.0891192
171	0xbf9c07e1	-1.2189904
172	0xbfa4a5bd	-1.2863079
173	0xbea20213	-0.31642208
174	0xbf82995a	-1.0203049
175	0x3e324a57	0.17411171
176	0xbfabda6c	-1.3426032
177	0xbfb1d0a5	-1.3891798
178	0xbf2f473e	-0.6846808
179	0xbf4d3599	-0.8015991
180	0xbf8b729f	-1.0894355
181	0xbf979294	-1.1841607
182	0xbf979d18	-1.1844816
183	0xbfa292fe	-1.2701108
184	0xbfa43341	-1.2828141
185	0xbfa0bb4e	-1.2557161
186	0xbf99da3d	-1.2019726
187	0xbf83edd1	-1.0306951
188	0xbf542a17	-0.82876724
189	0xbf77d7f6	-0.96813905
190	0xbf7a948f	-0.9788293
191	0xbf8d451c	-1.1036716
192	0xbbf4d47f	-0.0074716206
193	0xbf6dfd27	-0.92964405
194	0xbf7a66fa	-0.9781338
195	0xbf8a22ef	-1.0791911
196	0xbf7be89c	-0.9840181
197	0xbf61e7ac	-0.8824413
198	0xbf77224a	-0.96536696
199	0xbfafbc85	-1.3729407
200	0xbf80b508	-1.0055246
201	0xbf6c4a1f	-0.923006
202	0xbf80d799	-1.0065795
203	0xbf68da35	-0.9095796
204	0xc01c3f58	-2.4413662
205	0xc01784da	-2.3674836
206	0xc010a9cd	-2.2603638
207	0xc023b386	-2.5578322
208	0xc01eb12b	-2.4795635
209	0xc0048ad5	-2.0709736
210	0xc014cd66	-2.3250365
211	0xc012516d	-2.2862198
212	0xc01a20f4	-2.4082613
213	0xc024b376	-2.5734534
214	0xc0169876	-2.3530555
215	0xc015fe25	-2.3436368
216	0xc01c38a6	-2.4409575
217	0xc003d3ba	-2.0597978
218	0xc01538e7	-2.331598
219	0xc00923b0	-2.1428032
220	0xc01134d2	-2.268849
221	0x3fb2436e	1.3926828
222	0x3fba87b0	1.4572659
223	0x3fbe6a44	1.487618
224	0x3fb55162	1.4165461
225	0x3fb20200	1.390686
226	0x3fd43bfa	1.6580803
227	0x3fc4436f	1.5333079
228	0x3fc1ad43	1.5131
229	0x3fb613a3	1.4224743
230	0x3fba4888	1.4553385
231	0x3fb4efd5	1.4135691
232	0x3fb8e5f3	1.4445175
233	0x3fba321a	1.454654
234	0x3fcb4f87	1.5883645
235	0x3fbe6b6c	1.4876533
236	0x3fc6b63a	1.5524361
237	0x3fbf40f8	1.4941702
238	0xc013f4ae	-2.311809
239	0xc01087a5	-2.258279
240	0xc017c86f	-2.3716085
241	0xbfe510c6	-1.7895744
242	0xc007863c	-2.117568
243	0xbf4189a8	-0.7560067
244	0xc0180eaf	-2.3758962
245	0xc0149076	-2.3213172
246	0xbfefba36	-1.8728702
247	0xbff83c54	-1.9393411
248	0xc00d4d1e	-2.2078319
249	0xc016396e	-2.3472552
250	0xc00b082b	-2.1723735
251	0xc011c035	-2.2773564
252	0xc0173ad5	-2.3629658
253	0xc0159560	-2.3372421
254	0xc019d90d	-2.4038727
255	0xbfff2253	-1.993235
