cell2loc/sp09_single_cell_res/cell2location_map/model.pt (torch, 728556 bytes, 23 tensors)

_model.detection_mean_hyp_prior_beta f8 []
17.63651961741754
00000000: 1e12 1cf3 f2a2 3140

_model.cell_state f4 [17, 188]
0.32899606 0.010015993 0.19452676 0.09376401 0.84612334 4.968933 0.07750976 0.15512395
0.10636062 1.0495433 0.046581183 0.031038092 3.0972643 1.2361277 1.4459395 1.0814612
1.1663436 1.3982651 0.66274905 1.630986 0.99026597 1.2152526 0.042803433 0.05514225
0.16713844 0.0350684 0.055675775 1.7679524 0.092806235 0.19751112 2.251424 0.020067392
0.6820089 1.9510645 0.01334013 0.054095365 0.5894239 0.007496463 0.37044302 0.13458247
1.620905 0.027362267 2.3857484 0.24998012 0.5877357 0.27058604 2.0685587 2.2453423
0.6403719 0.00016558175 0.050606035 3.877115 2.0255716 2.5593817 2.4287176 0.013216495
1.1322461 1.8158399 0.091566116 0.0864181 0.17745946 0.0001665991 2.0865166 0.061806325
3.3027027 3.3769057 1.1122899 1.4418728 0.15591253 0.16160561 0.72402865 1.3149683
1.4163092 1.797953 0.050331812 0.099930726 0.41764027 0.33676612 2.8510168 0.089077555
0.08549815 0.027715974 0.0131952595 0.046709575 0.6723193 1.7496039 1.2803069 0.74065
0.00016545682 0.112506144 0.16499224 0.7134674 0.13457872 5.9932923 0.2424664 0.019632066
0.00994244 0.027661225 2.7363133 3.5181246 2.9464526 2.8530107 2.3630111 2.1826525
2.3675232 2.290445 2.7919776 0.4775562 1.5801462 0.15416943 0.7910926 0.22259328
1.2271836 3.8440385 0.48073816 0.27386495 0.023992445 1.7581904 1.3344102 0.04702423
1.0956981 0.0001663524 0.129686 0.075393036 2.0792487 0.69686025 0.29906264 0.02701398
0.24493626 2.8990757 3.1116018 2.4729657 2.7241848 2.7929733 3.0307488 2.9584842
2.9895847 2.925077 3.049049 2.711818 2.1651373 2.246241 2.2366116 2.7416532
3.059538 2.3801224 3.0927095 2.2544599 2.991108 2.906437 2.3095815 3.109811
2.2296653 2.8438306 2.6418965 2.8305352 3.9361565 3.1796157 3.1267807 2.7295926
1.9875836 2.9744616 2.7147985 2.2033107 0.8935273 1.0483456 2.9885619 2.2898939
0.15831767 0.24832204 0.53069407 0.6837691 0.007311772 0.027688319 0.18144868 0.0073667187
0.0072517954 0.8120085 4.185704 0.5303725 0.97537786 1.3780632 0.42357627 0.01014213
0.17177229 2.0432172 0.016643038 0.00016727405 0.20006897 0.023987427 0.123192795 0.070698984
0.40194127 4.755428 0.059380393 0.16503736 0.13688406 0.9159792 0.10434025 0.038845953
2.8839858 1.4952182 0.77999604 1.0825535 1.7302723 1.395891 1.3857613 2.649773
0.4866612 1.0775156 0.01312799 0.06297814 1.0436106 0.72450197 0.07819847 0.6313937
0.2660076 0.19057897 1.7051136 0.023640852 0.57505757 1.2680148 0.010128453 0.0513889
0.30498138 0.027922917 0.26056245 0.10295393 0.51384294 0.03444217 1.6633266 0.20984055
0.5677804 0.2678057 1.8666072 2.056668 0.4324581 0.0054639196 0.10136809 2.954246
1.8835018 1.6501725 2.1254263 0.11402501 1.1336757 1.7678978 0.03968702 0.078941
0.120988496 0.00016577402 1.8764883 0.12683049 2.909752 3.0767734 0.8293855 1.2412053
00000000: 2c72 a83e 1f1a 243c 0632 473e 5807 c03d
00000010: 8a9b 583f 8001 9f40 70bd 9e3d d0d8 1e3e
00000020: 99d3 d93d 6f57 863f e9cb 3e3d 9943 fe3c
00000030: 9439 4640 6f39 9e3f 8c14 b93f 526d 8a3f
00000040: bf4a 953f 5afa b23f eca9 293f 26c4 d03f
00000050: 1282 7d3f 668d 9b3f a752 2f3d d7dc 613d
00000060: 5726 2b3e e2a3 0f3d 480c 643d 444c e23f
00000070: 3211 be3d 5b40 4a3e 5517 1040 5f64 a43c
00000080: 2398 2e3f 7bbc f93f 9090 5a3c 1a93 5d3d
00000090: 7ce4 163f e4a4 f53b b5aa bd3e fdcf 093e
000000a0: d179 cf3f d526 e03c 1ab0 1840 cafa 7f3e
000000b0: d975 163f 418a 8a3e 4463 0440 b0b3 0f40
000000c0: 6aef 233f 03a0 2d39 4648 4f3d a722 7840
000000d0: f7a2 0140 e9cc 2340 1c70 1b40 ff89 583c
000000e0: 71ed 903f 716d e83f 0487 bb3d f9fb b03d
000000f0: efb7 353e 1bb1 2e39 7d89 0540 a128 7d3d
00000100: 7b5f 5340 391f 5840 845f 8e3f 4a8f b83f
00000110: 89a7 1f3e f17b 253e f159 393f e250 a83f
00000120: 9f49 b53f 5323 e63f bb28 4e3d 7ba8 cc3d
00000130: f2d4 d53e 9c6c ac3e 0f77 3640 4b6e b63d
00000140: a719 af3d 9c0c e33c ee30 583c 8a52 3f3d
00000150: 1e1d 2c3f 05f3 df3f 19e1 a33f 3d9b 3d3f
00000160: 7a7e 2d39 9f69 e63d baf3 283e cda5 363f
00000170: 01cf 093e 0dc9 bf40 1d49 783e 6dd3 a03c
00000180: 9ee5 223c cb99 e23c c21f 2f40 f428 6140
00000190: ae92 3c40 ba97 3640 933b 1740 94b0 0b40
000001a0: 8085 1740 a796 1240 c3af 3240 3f82 f43e
000001b0: 3b42 ca3f 97de 1d3e 0b85 4a3f 7eef 633e
000001c0: 5a14 9d3f ba04 7640 5023 f63e 0738 8c3e
000001d0: ce8b c43c 620c e13f f4cd aa3f 7b9c 403d
000001e0: d63f 8c3f e26e 2e39 68cc 043e aa67 9a3d
000001f0: 6912 0540 6f65 323f bd1e 993e 6c4c dd3c
00000200: 92d0 7a3e 758a 3940 7c24 4740 1245 1e40
00000210: 0b59 2e40 13c0 3240 caf7 4140 ce57 3d40
00000220: 5b55 3f40 7634 3b40 9e23 4340 6d8e 2d40
00000230: 9c91 0a40 6ac2 0f40 a524 0f40 3f77 2f40
00000240: 78cf 4340 ed53 1840 f4ee 4540 1249 1040
00000250: 506e 3f40 1003 3a40 2fd0 1340 2507 4740
00000260: d6b2 0e40 5201 3640 d514 2940 7d27 3540
00000270: fde9 7b40 d37e 4b40 2d1d 4840 a5b1 2e40
00000280: 2469 fe3f 945d 3e40 42bf 2d40 0b03 0d40
00000290: 35be 643f 3030 863f 9944 3f40 9f8d 1240
000002a0: 071e 223e 2248 7e3e 91db 073f 7e0b 2f3f
000002b0: 9797 ef3b 9dd2 e23c afcd 393e 8464 f13b
000002c0: 78a0 ed3b cadf 4f3f 4af1 8540 7ec6 073f
000002d0: 5db2 793f 6064 b03f fdde d83e 2d2b 263c
000002e0: 13e5 2f3e 12c4 0240 fb56 883c 4966 2f39
000002f0: e1de 4c3e 4881 c43c 814c fc3d a1ca 903d
00000300: 3fcb cd3e 772c 9840 db38 733d 8eff 283e
00000310: 562b 0c3e 9d7d 6a3f 57b0 d53d ef1c 1f3d
00000320: 3993 3840 4f63 bf3f d2ad 473f 1d91 8a3f
00000330: 9079 dd3f 8eac b23f a060 b13f e195 2940
00000340: a82b f93e 08ec 893f c816 573c affa 803d
00000350: 0895 853f f678 393f 8526 a03d 04a3 213f
00000360: 2632 883e 2227 433e 2a41 da3f 76aa c13c
00000370: f936 133f 4f4e a23f d0f1 253c 2b7d 523d
00000380: 8526 9c3e 9abe e43c 7168 853e 83d9 d23d
00000390: 368b 033f 3c13 0d3d e3e7 d43f 71e0 563e
000003a0: 0e5a 113f d41d 893e fcec ee3f 73a0 0340
000003b0: 266b dd3e ae0a b33b 139a cf3d 5e12 3d40
000003c0: 9616 f13f da38 d33f fc06 0840 f285 e93d
000003d0: 491c 913f 7a4a e23f db8e 223d d2ab a13d
000003e0: d1c8 f73d a0d3 2d39 c530 f03f dadf 013e
000003f0: 6039 3a40 dbe9 4440 9c52 543f d1df 9e3f

_model.ones_1_n_groups f4 [1, 50]
1.0 1.0 1.0 1.0 1.0 1.0 1.0 1.0
1.0 1.0 1.0 1.0 1.0 1.0 1.0 1.0
1.0 1.0 1.0 1.0 1.0 1.0 1.0 1.0
1.0 1.0 1.0 1.0 1.0 1.0 1.0 1.0
1.0 1.0 1.0 1.0 1.0 1.0 1.0 1.0
1.0 1.0 1.0 1.0 1.0 1.0 1.0 1.0
1.0 1.0
00000000: 0000 803f 0000 803f 0000 803f 0000 803f
00000010: 0000 803f 0000 803f 0000 803f 0000 803f
00000020: 0000 803f 0000 803f 0000 803f 0000 803f
00000030: 0000 803f 0000 803f 0000 803f 0000 803f
00000040: 0000 803f 0000 803f 0000 803f 0000 803f
00000050: 0000 803f 0000 803f 0000 803f 0000 803f
00000060: 0000 803f 0000 803f 0000 803f 0000 803f
00000070: 0000 803f 0000 803f 0000 803f 0000 803f
00000080: 0000 803f 0000 803f 0000 803f 0000 803f
00000090: 0000 803f 0000 803f 0000 803f 0000 803f
000000a0: 0000 803f 0000 803f 0000 803f 0000 803f
000000b0: 0000 803f 0000 803f 0000 803f 0000 803f
000000c0: 0000 803f 0000 803f

_guide.locs.m_g_unconstrained f4 [1, 188]
-8.036032 -5.184696 -0.3429039 -2.7234807 -4.5384836 -0.03030834 -0.4746917 -0.66997087
-0.36938235 -2.3611102 -3.0398793 -0.84927297 -5.8607993 -4.7058954 -7.3066683 -5.3312535
-8.946113 -6.5104256 -8.628604 -4.9182944 -7.948655 -0.081891485 -5.99803 -4.3730264
-4.7963276 -7.370155 0.14050135 -2.8673382 -3.0083933 0.10653806 -6.1041126 1.002421
-3.1226702 -6.812007 -4.1341243 -0.6997653 -3.04171 0.9398241 -0.8545457 -3.4370902
-7.254099 -5.992504 -2.6774528 -1.2106277 -1.7141129 -1.8360066 -0.495149 -0.5450392
-2.2860184 -2.228163 -1.4420907 -6.288913 -8.46928 -9.212563 -8.52495 -4.6685905
-6.521562 -1.0247933 0.8736359 1.9291579 1.4211221 -4.548829 -4.3841023 -3.229299
-0.51211023 -1.5343566 -1.5413179 -1.3854921 -1.1556468 -0.9001196 -0.54610246 -0.58144706
0.9320489 -1.1086586 0.73953044 -8.783243 -5.572653 -8.67665 -3.6659477 -4.1862965
-2.4851563 -3.0551867 -1.5429757 -8.188666 -7.4025526 -8.672056 -8.365706 -1.9358709
-5.410219 -3.4765365 -5.2422457 -3.07581 -3.0818324 -1.0991751 -1.5463749 -2.7622309
-2.0457087 -8.331072 1.5499045 0.9899749 1.1551517 1.8861108 1.283672 1.5978665
1.2969546 1.135997 1.4141973 -0.337951 -0.16848537 -1.9663051 -1.5615724 -1.2771146
0.75904053 -5.2568316 -1.4034189 -0.8353242 -5.488516 -1.3309411 -1.7773209 -6.2414455
-9.080503 -4.178591 -0.15796079 -9.10309 -8.542592 0.0030942315 -3.2074113 -7.217236
-0.5509635 0.05208967 0.51257503 -0.44060212 -0.12760806 0.1444088 -0.21436356 0.21990387
0.13292454 0.29863435 0.14174697 -0.1179765 0.26865584 -0.24780734 0.1503399 0.24251963
0.10357176 0.3748392 0.39701867 -0.14214748 0.24350668 -0.4335764 0.28167278 0.8658054
0.43069068 -0.017510938 -0.111499004 0.2211634 0.48252124 0.41819367 -0.1270124 -0.023851749
-0.20646079 0.45448896 0.4025736 -0.2283234 -1.9879447 -0.044184715 -1.0394522 0.48812973
-4.453888 -5.023639 -1.8516402 -1.5244179 -6.9306726 -1.0640241 -0.17635162 -1.8487804
1.5721923 -0.5719243 -0.54010946 -3.529964 -4.6644263 -7.770128 -7.9736447 -8.429497
-1.7914339 -3.9093719 -0.66908556 -0.21158822
00000000: 9693 00c1 08e9 a5c0 1a91 afbe 824d 2ec0
00000010: 423b 91c0 3249 f8bc ca0a f3be 3683 2bbf
00000020: af1f bdbe 6e1c 17c0 628d 42c0 f469 59bf
00000030: ab8b bbc0 b296 96c0 3ad0 e9c0 a199 aac0
00000040: 4723 0fc1 6855 d0c0 c30e 0ac1 ab62 9dc0
00000050: 625b fec0 b9b6 a7bd ddef bfc0 d5ef 8bc0
00000060: 847b 99c0 4fd8 ebc0 96df 0f3e 7882 37c0
00000070: 8489 40c0 a030 da3d e454 c3c0 554f 803f
00000080: d4d9 47c0 f6fb d9c0 bf4a 84c0 d223 33bf
00000090: 60ab 42c0 5098 703f 82c3 5abf 49f9 5bc0
000000a0: 9421 e8c0 98c2 bfc0 635b 2bc0 d9f5 9abf
000000b0: 0d68 dbbf 4402 ebbf 2b84 fdbe b087 0bbf
000000c0: 204e 12c0 399a 0ec0 6e96 b8bf c63e c9c0
000000d0: 2c82 07c1 a866 13c1 3266 08c1 1865 95c0
000000e0: a3b0 d0c0 6d2c 83bf 9aa6 5f3f a5ee f63f
000000f0: 54e7 b53f 0290 91c0 914a 8cc0 d6ac 4ec0
00000100: a819 03bf cc65 c4bf e849 c5bf ce57 b1bf
00000110: 3cec 93bf 3d6e 66bf 5fcd 0bbf b7d9 14bf
00000120: c29a 6e3f 86e8 8dbf de51 3d3f 2a88 0cc1
00000130: 2c53 b2c0 8fd3 0ac1 e39e 6ac0 24f6 85c0
00000140: cd0c 1fc0 2e88 43c0 3a80 c5bf c704 03c1
00000150: b6e1 ecc0 bec0 0ac1 efd9 05c1 9eca f7bf
00000160: 8420 adc0 937f 5ec0 7ac0 a7c0 12da 44c0
00000170: be3c 45c0 c5b1 8cbf 9def c5bf 64c8 30c0
00000180: e4ec 02c0 124c 05c1 4563 c63f ff6e 7d3f
00000190: 03dc 933f 146c f13f 5d4f a43f e486 cc3f
000001a0: 9c02 a63f 5a68 913f 6b04 b53f ea07 adbe
000001b0: 6e87 2cbe e3af fbbf 9be1 c7bf 7e78 a3bf
000001c0: 7b50 423f f737 a8c0 3ba3 b3bf cfd7 55bf
000001d0: eca1 afc0 475c aabf 407f e3bf ecb9 c7c0
000001e0: be49 11c1 04b7 85c0 79c0 21be 42a6 11c1
000001f0: 75ae 08c1 97c8 4a3b 3a46 4dc0 99f3 e6c0
00000200: f20b 0dbf fa5b 553d 1e38 033f 9a96 e1be
00000210: b0ab 02be e7df 133e 1f82 5bbe 7b2e 613e
00000220: 5f1d 083e 9ae6 983e 1e26 113e aa9d f1bd
00000230: 428d 893e 35c1 7dbe b4f2 193e 1157 783e
00000240: 6e1d d43d ecea bf3e 0846 cb3e 1c8f 11be
00000250: d159 793e bafd ddbe 6a37 903e 6ca5 5d3f
00000260: 7d83 dc3e 1973 8fbc 9759 e4bd a978 623e
00000270: 060d f73e 7b1d d63e 8a0f 02be be64 c3bc
00000280: 756a 53be c7b2 e83e 201e ce3e 9ccd 69be
00000290: f974 febf 08fb 34bd c50c 85bf 24ec f93e
000002a0: 4086 8ec0 a7c1 a0c0 8c02 edbf 2020 c3bf
000002b0: 12c8 ddc0 f131 88bf 8595 34be d6a4 ecbf
000002c0: 993d c93f a269 12bf 9d44 0abf eeea 61c0
000002d0: fb42 95c0 e3a4 f8c0 1928 ffc0 38df 06c1
000002e0: b54d e5bf 2633 7ac0 3149 2bbf 95aa 58be

_guide.locs.n_s_cells_per_location_unconstrained f4 [542, 1]
1.3407533 1.7746409 1.1109544 1.2041546 0.7671154 0.9956652 0.52265084 2.5724409
1.0917474 3.1230206 2.4313512 0.85155004 1.014294 0.5731605 0.7564626 1.2346625
1.3105422 1.0797057 1.2307665 1.458753 1.357094 3.190571 2.5249932 0.8075372
0.71415687 1.5213463 2.40819 1.6447328 1.588584 1.0248746 1.3299197 2.6926246
1.2809807 1.3125643 2.375302 1.0934149 1.7336808 3.1552238 1.8126602 2.576503
1.4066705 0.84187096 2.0300403 1.4466574 0.9335673 2.686551 1.0277063 1.8035015
0.98412687 2.5339031 1.2366707 0.80362916 1.3277984 2.2564847 1.6172421 1.7184224
1.677186 1.175289 1.2938521 1.1650225 0.99413526 1.416771 3.212489 1.759313
1.8711674 1.4881607 3.027057 1.0924735 1.3593104 1.20678 0.95099705 1.7947398
2.088911 2.0561128 3.2529986 1.0654416 2.1979067 1.1607604 3.1406589 1.6385158
1.0372244 1.2071098 2.3501983 3.3064387 0.8276218 2.832446 1.4624426 1.3906926
1.3823844 1.3332996 3.3375049 1.3300935 2.22276 2.8541753 1.1283288 1.5162832
1.3428837 2.0796175 1.3830875 0.64239246 0.8845249 1.1361312 1.7025743 2.3354957
1.837437 1.6113175 1.2311747 1.5639691 1.3735149 0.7891162 3.103845 3.3806098
2.6707098 1.5626335 1.233327 1.6146506 1.004409 1.0848278 1.1880125 2.6407173
3.4595282 3.6171334 1.2514526 2.071587 2.9622123 1.4739308 1.0978312 1.3106064
3.1376932 2.416169 1.766166 1.1521429 0.97275037 2.539649 1.0618051 0.9233045
2.3088472 0.87973577 1.7461627 1.464751 1.3828365 3.1750178 0.8606537 2.438158
1.8579727 2.186057 1.7401643 1.2317449 1.1869559 3.1879776 1.3774023 1.4849265
2.448268 2.4506357 1.2265887 1.4106951 1.1963409 3.0170004 1.2164483 1.1247962
2.3087559 1.3651886 1.1805664 1.3036927 1.1912398 2.8878229 2.3658683 0.6088948
0.910289 1.3406569 1.8143806 1.6844445 2.0322454 1.77678 3.068408 3.2506855
0.8355287 0.7883884 3.1995773 1.2098461 1.3745164 0.63454056 0.4120774 1.5889074
1.6566182 0.70621425 0.676819 2.9912395 2.1564405 3.1027238 1.1820322 1.5613607
1.1484534 1.4269562 3.3643823 1.3176649 2.9820044 1.2776808 1.1868023 1.0211338
3.510114 1.9535203 1.2624731 1.5050381 1.277913 1.5502945 2.9562154 0.9530393
1.8954519 3.0170403 1.1858052 1.0991974 0.98106945 1.118712 0.58352244 3.0279117
1.219341 1.6746228 2.122457 1.2500159 0.7826574 1.4448792 2.5391853 1.0010103
1.077561 1.6136616 1.5258901 1.52244 1.0463601 2.0551105 3.2797098 1.3470645
2.61445 3.3861804 1.5708286 1.9554462 1.0901775 1.553189 1.8672482 1.291031
1.2447948 1.2436945 2.5849173 1.3422177 1.4721553 3.5176167 0.9125526 1.2447838
0.6145381 1.4249505 1.3353051 2.0006526 1.9237635 1.1526078 1.1921926 3.365814
00000000: ce9d ab3f 6f27 e33f c133 8e3f bd21 9a3f
00000010: ad61 443f eae3 7e3f 72cc 053f dfa2 2440
00000020: 61be 8b3f 92df 4740 429b 1b40 2fff 593f
00000030: 63d4 813f a6ba 123f 88a7 413f 6c09 9e3f
00000040: d9bf a73f cc33 8a3f c289 9d3f 6bb8 ba3f
00000050: 42b5 ad3f 5132 4c40 7d99 2140 c2ba 4e3f
00000060: fcd2 363f 7abb c23f c91f 1a40 9b86 d23f
00000070: b856 cb3f 172f 833f cf3a aa3f f653 2c40
00000080: 2df7 a33f 1b02 a83f f304 1840 05f5 8b3f
00000090: 41e9 dd3f 30ef 4940 4005 e83f 6de5 2440
000000a0: c70d b43f db84 573f 2eec 0140 122c b93f
000000b0: 44fe 6e3f 74f0 2b40 e18b 833f 23d9 e63f
000000c0: bdef 7b3f 782b 2240 3a4b 9e3f a4ba 4d3f
000000d0: 4cf5 a93f 3f6a 1040 ca01 cf3f 44f5 db3f
000000e0: 08ae d63f df6f 963f f29c a53f 751f 953f
000000f0: a67f 7e3f c158 b53f 6b99 4d40 2b31 e13f
00000100: 6a82 ef3f 0d7c be3f 4dbb 4140 2cd6 8b3f
00000110: e2fd ad3f c477 9a3f 8b74 733f 09ba e53f
00000120: b8b0 0540 5a97 0340 2131 5040 6460 883f
00000130: 81aa 0c40 cc93 943f 8e00 4940 e3ba d13f
00000140: c5c3 843f 9382 9a3f a669 1640 b19c 5340
00000150: 06df 533f cc46 3540 5231 bb3f 3702 b23f
00000160: f9f1 b03f 90a9 aa3f ae99 5540 8140 aa3f
00000170: b341 0e40 cfaa 3640 146d 903f 9115 c23f
00000180: 9de3 ab3f 7418 0540 0309 b13f d573 243f
00000190: 3970 623f bf6c 913f f4ed d93f c378 1540
000001a0: 2331 eb3f a73f ce3f 2297 9d3f 2430 c83f
000001b0: 56cf af3f 8503 4a3f 65a5 4640 e95b 5840
000001c0: e9ec 2a40 6004 c83f a9dd 9d3f dfac ce3f
000001d0: 7990 803f a3db 8a3f cb10 983f 8301 2940
000001e0: e968 5d40 1d7f 6740 992f a03f e294 0440
000001f0: e394 3d40 c4a9 bc3f bc85 8c3f f3c1 a73f
00000200: f7cf 4840 83a2 1a40 ba11 e23f 6b79 933f
00000210: 2b06 793f 9c89 2240 3be9 873f af5d 6c3f
00000220: 27c4 1340 5d36 613f 4282 df3f f67c bb3f
00000230: c900 b13f 7e33 4b40 cd53 5c3f c80a 1c40
00000240: 0dd2 ed3f 5ce8 0b40 b4bd de3f d1a9 9d3f
00000250: 2cee 973f d307 4c40 b84e b03f 1212 be3f
00000260: 6cb0 1c40 37d7 1c40 dc00 9d3f a891 b43f
00000270: b321 993f 8916 4140 94b4 9b3f 52f9 8f3f
00000280: a8c2 1340 80be ae3f cd1c 973f 67df a63f
00000290: 8c7a 983f 17d2 3840 636a 1740 88e0 1b3f
000002a0: b308 693f a59a ab3f a03d e83f e19b d73f
000002b0: 4f10 0240 876d e33f cc60 4440 3b0b 5040
000002c0: 35e5 553f d2d3 493f e0c5 4c40 3ddc 9a3f
000002d0: 27f0 af3f 4071 223f cffb d23e 5161 cb3f
000002e0: 110c d43f 75ca 343f 0344 2d3f 7870 3f40
000002f0: 1f03 0a40 0793 4640 d54c 973f abda c73f
00000300: 8500 933f 80a6 b63f 0a52 5740 3ea9 a83f
00000310: 29d9 3e40 0b8b a33f 23e9 973f 83b4 823f
00000320: b5a5 6040 f40c fa3f b898 a13f 17a5 c03f
00000330: a792 a33f 0d70 c63f a232 3d40 62fa 733f
00000340: 2b9e f23f 3017 4140 77c8 973f 80b2 8c3f
00000350: 5e27 7b3f f431 8f3f ba61 153f 4ec9 4140
00000360: 5e13 9c3f 0a5a d63f 56d6 0740 8500 a03f
00000370: 3c5c 483f cdf1 b83f 0382 2240 1b21 803f
00000380: 85ed 893f 778c ce3f 5e50 c33f 50df c23f
00000390: 21ef 853f ee86 0340 c4e6 5140 9c6c ac3f
000003a0: 2653 2740 2eb7 5840 e910 c93f 104c fa3f
000003b0: f08a 8b3f e6ce c63f fd01 ef3f 8140 a53f
000003c0: 7055 9f3f 6231 9f3f 496f 2540 cacd ab3f
000003d0: 966f bc3f a220 6140 0c9d 693f 1355 9f3f
000003e0: 5e52 1d3f c764 b63f 47eb aa3f b10a 0040
000003f0: e23d f63f a788 933f c499 983f 7f69 5740

_guide.locs.b_s_groups_per_location_unconstrained f4 [542, 1]
2.9117723 2.9333293 2.8681886 2.9069571 2.889645 2.8937454 2.902115 2.9973154
2.8884728 2.9982166 3.0015428 2.9033303 2.879487 2.8827133 2.8949664 2.9079971
2.9080307 2.8933938 2.889918 2.9079077 2.9280412 2.980089 3.0065887 2.8777184
2.880611 2.9467945 2.9801443 2.9133084 2.9642305 2.8918662 2.90167 3.0033185
2.9131162 2.9259827 2.9924674 2.9034183 2.939961 2.983584 2.9546738 3.0206523
2.9158027 2.8654907 2.9610403 2.9304643 2.8741405 3.0046885 2.9011426 2.9612098
2.8859892 2.9910235 2.8877726 2.896334 2.920077 2.9934647 2.952719 2.9434028
2.9345655 2.9067118 2.9045973 2.9211082 2.8852487 2.9259923 2.9788475 2.954575
2.9380019 2.9112458 2.9889984 2.9210753 2.9039938 2.8932967 2.904994 2.9477916
2.972842 2.959017 2.9744873 2.9184058 2.9724736 2.926035 3.0153718 2.9476564
2.9036288 2.8829439 2.9967926 2.9669719 2.8975713 3.0049534 2.8983464 2.9157658
2.9162772 2.9190624 2.9402766 2.9131916 3.0083916 3.0098104 2.92465 2.9178658
2.910074 2.9859624 2.9128425 2.8646026 2.8877187 2.8903978 2.954787 3.0153198
2.935835 2.9286425 2.9048996 2.9228873 2.8961625 2.8885198 3.0361924 2.9330213
3.0318625 2.9494462 2.9143038 2.9405477 2.878777 2.9137394 2.8881786 3.0107474
2.9040983 2.807984 2.9119933 2.9538958 2.999599 2.9041767 2.8809779 2.875718
3.0130484 2.9769723 2.9778795 2.9069052 2.872728 3.0007892 2.8915465 2.9117055
2.9678483 2.8939922 2.9283702 2.9454994 2.9395137 3.0096033 2.8919163 2.9968286
2.9577878 2.9874065 2.9377732 2.903368 2.900249 3.000501 2.8946464 2.92821
3.0053818 2.9835994 2.9139292 2.8920686 2.9033382 3.002818 2.9032888 2.8843346
3.005175 2.8956084 2.8985307 2.9110985 2.89407 3.0321865 3.0023155 2.868067
2.9126894 2.9325752 2.9474435 2.9665563 2.9646451 2.9642956 3.0062897 2.9789314
2.8690472 2.9214072 2.9858675 2.9158607 2.9083984 2.8874598 2.896282 2.917848
2.9531333 2.8825123 2.8632183 3.048892 2.9590092 2.9932969 2.8986366 2.936036
2.9262676 2.9177947 2.9416578 2.9192133 3.0023916 2.900632 2.892293 2.880578
2.8604014 2.965692 2.9304116 2.9299538 2.939398 2.9156623 3.0409968 2.8876936
2.9525595 3.0187867 2.8929875 2.9269228 2.8824825 2.8902528 2.8972886 3.0087018
2.8932776 2.9456449 2.9815574 2.9156902 2.8755035 2.936669 2.9818537 2.8824043
2.918262 2.9427137 2.9326093 2.935447 2.9006643 2.9883811 2.960364 2.9056036
2.9817219 2.9342973 2.951404 2.9815366 2.8984387 2.9452863 2.9792786 2.9219868
2.919003 2.8786492 3.0269527 2.9229813 2.9260693 2.872708 2.8820336 2.9038715
2.8941705 2.931127 2.8978856 2.951417 2.9323585 2.8947167 2.910485 2.9512317
00000000: 7a5a 3a40 abbb 3b40 6790 3740 960b 3a40
00000010: f2ef 3840 2033 3940 41bc 3940 04d4 3f40
00000020: bddc 3840 c8e2 3f40 4719 4040 2ad0 3940
00000030: 8449 3840 607e 3840 2147 3940 a01c 3a40
00000040: 2d1d 3a40 5d2d 3940 6bf4 3840 291b 3a40
00000050: 0765 3b40 c7b9 3e40 f36b 4040 8a2c 3840
00000060: ee5b 3840 4898 3c40 afba 3e40 a573 3a40
00000070: f4b5 3d40 5614 3940 f6b4 3940 5f36 4040
00000080: 7f70 3a40 4d43 3b40 9684 3f40 9bd1 3940
00000090: 5228 3c40 0af3 3e40 6019 3d40 5e52 4140
000000a0: 839c 3a40 3364 3740 af81 3d40 ba8c 3b40
000000b0: ebf1 3740 d14c 4040 52ac 3940 7684 3d40
000000c0: 0cb4 3840 ee6c 3f40 44d1 3840 895d 3940
000000d0: 8be2 3a40 ed94 3f40 59f9 3c40 b660 3c40
000000e0: eccf 3b40 9107 3a40 ece4 3940 70f3 3a40
000000f0: eaa7 3840 7543 3b40 70a5 3e40 c217 3d40
00000100: 3908 3c40 da51 3a40 c04b 3f40 e6f2 3a40
00000110: 09db 3940 c62b 3940 6ceb 3940 9ea8 3c40
00000120: 0b43 3e40 8960 3d40 005e 3e40 29c7 3a40
00000130: 023d 3e40 2844 3b40 dafb 4040 67a6 3c40
00000140: 0ed5 3940 2782 3840 73cb 3f40 dee2 3d40
00000150: cf71 3940 2851 4040 827e 3940 e89b 3a40
00000160: 49a4 3a40 ebd1 3a40 7e2d 3c40 bb71 3a40
00000170: 7d89 4040 bca0 4040 772d 3b40 50be 3a40
00000180: a73e 3a40 021a 3f40 036c 3a40 a655 3740
00000190: 62d0 3840 47fc 3840 3b1b 3d40 00fb 4040
000001a0: b8e4 3b40 e16e 3b40 e0e9 3940 9610 3b40
000001b0: ba5a 3940 82dd 3840 fa50 4240 9fb6 3b40
000001c0: 090a 4240 bac3 3c40 f483 3a40 ef31 3c40
000001d0: e23d 3840 b57a 3a40 ebd7 3840 16b0 4040
000001e0: bfdc 3940 03b6 3340 195e 3a40 a10c 3d40
000001f0: 6ef9 3f40 08de 3940 f161 3840 c40b 3840
00000200: c9d5 4040 b786 3e40 9495 3e40 bc0a 3a40
00000210: c7da 3740 ee0c 4040 190f 3940 6259 3a40
00000220: 3af1 3d40 2b37 3940 6b6a 3b40 1083 3c40
00000230: fe20 3c40 579d 4040 2815 3940 0acc 3f40
00000240: 654c 3d40 ab31 3f40 7a04 3c40 c8d0 3940
00000250: ae9d 3940 3508 4040 e341 3940 cb67 3b40
00000260: 2d58 4040 4bf3 3e40 d17d 3a40 a717 3940
00000270: 4bd0 3940 2c2e 4040 7ccf 3940 f098 3840
00000280: ca54 4040 a651 3940 8781 3940 704f 3a40
00000290: 7138 3940 580f 4240 f025 4040 698e 3740
000002a0: 8169 3a40 50af 3b40 eaa2 3c40 0fdc 3d40
000002b0: bfbc 3d40 05b7 3d40 0d67 4040 d0a6 3e40
000002c0: 789e 3740 56f8 3a40 7418 3f40 769d 3a40
000002d0: 3323 3a40 24cc 3840 af5c 3940 06be 3a40
000002e0: 2300 3d40 157b 3840 f83e 3740 0c21 4340
000002f0: 6860 3d40 2d92 3f40 4383 3940 04e8 3b40
00000300: f847 3b40 26bd 3a40 1f44 3c40 64d4 3a40
00000310: 2f27 4040 f4a3 3940 541b 3940 645b 3840
00000320: d110 3740 e6cd 3d40 dd8b 3b40 5d84 3b40
00000330: 191f 3c40 369a 3a40 b19f 4240 f9cf 3840
00000340: bcf6 3c40 cd33 4140 b526 3940 b452 3b40
00000350: 987a 3840 e7f9 3840 2d6d 3940 928e 4040
00000360: 762b 3940 7285 3c40 d6d1 3e40 ab9a 3a40
00000370: 4008 3840 63f2 3b40 b1d6 3e40 5079 3840
00000380: cec4 3a40 6c55 3c40 dfaf 3b40 5dde 3b40
00000390: 7ca4 3940 a341 3f40 9b76 3d40 69f5 3940
000003a0: 88d4 3e40 87cb 3b40 cee3 3c40 7fd1 3e40
000003b0: 0580 3940 927f 3c40 80ac 3e40 d501 3b40
000003c0: f2d0 3a40 ca3b 3840 98b9 4140 2012 3b40
000003d0: b844 3b40 73da 3740 3d73 3840 08d9 3940
000003e0: 173a 3940 9697 3b40 f576 3940 04e4 3c40
000003f0: c3ab 3b40 0a43 3940 6345 3a40 fbe0 3c40

_guide.locs.z_sr_groups_factors_unconstrained f4 [542, 50]
-3.8244596 -3.8046486 -3.963692 -3.8768852 -3.7695513 -3.7121377 -3.7668343 -3.8489358
-3.8628755 -3.8142495 -3.831524 -3.7332125 -3.7770288 -3.8837602 -3.818775 -3.8188357
-3.7565594 -3.7979233 -3.8595643 -3.8229523 -3.836863 -3.8432615 -3.8679717 -3.8548365
-3.8047342 -3.83879 -3.8361967 -3.7955477 -3.7809973 -3.8736577 -3.8652873 -3.8749876
-3.7229338 -3.7952952 -3.8475287 -3.803914 -3.6656835 -3.7187555 -3.72313 -3.8248382
-3.7879941 -3.844528 -3.9448721 -3.7628713 -3.7615657 -3.8455791 -3.8666875 -3.8209212
-3.8356225 -3.7926326 -3.2926793 -3.1609988 -3.1659021 -3.1739087 -3.2536387 -3.2651894
-3.260382 -3.2588084 -3.2362134 -3.2422748 -3.1520994 -3.1641493 -3.2051802 -3.2367861
-3.3138409 -3.299101 -3.1802654 -3.2179534 -3.2241 -3.278587 -3.2238612 -3.1992097
-3.1910746 -3.2476728 -3.2136853 -3.2944782 -3.2180426 -3.2527924 -3.1988647 -3.2144125
-3.193469 -3.296427 -3.2259176 -3.1869638 -3.2003176 -3.2902417 -3.32682 -3.2183073
-3.169694 -3.1767657 -3.2781417 -3.155685 -3.188348 -3.2196152 -3.2456484 -3.2999568
-3.246825 -3.2913423 -3.274026 -3.2465663 -4.2355313 -4.2555876 -4.278774 -4.2823534
-4.2823033 -4.242307 -4.2606635 -4.205792 -4.2786245 -4.1753025 -4.3777375 -4.2230234
-4.2634273 -4.2892976 -4.1354284 -4.322279 -4.2032447 -4.2676764 -4.3562117 -4.1647863
-4.250789 -4.363486 -4.3081303 -4.3449626 -4.2326264 -4.316432 -4.235592 -4.2407875
-4.1948433 -4.244417 -4.333263 -4.2837296 -4.1894407 -4.229346 -4.26352 -4.187808
-4.3029895 -4.255957 -4.340763 -4.216421 -4.1433268 -4.2504253 -4.262281 -4.2725735
-4.2891006 -4.166662 -4.3339257 -4.19968 -4.2995877 -4.3275847 -3.9478598 -3.9829745
-3.9307096 -4.0731087 -4.039284 -4.00841 -4.045813 -4.0892296 -3.9812472 -3.9766243
-4.132936 -4.1342893 -4.018134 -4.0404196 -3.9521642 -4.010667 -4.02347 -4.098424
-3.9453359 -4.038954 -4.010795 -3.9203331 -3.8971515 -4.025727 -4.049656 -4.058738
-4.041241 -4.00356 -3.9932897 -4.0123477 -4.019098 -3.9862847 -3.9896069 -4.019338
-4.0411363 -4.003061 -4.020974 -3.9743717 -4.014082 -3.9163148 -4.030004 -4.028665
-3.984946 -3.9975328 -3.9901118 -4.0035377 -4.021256 -4.025454 -4.0656285 -4.0712647
-4.5366035 -4.53943 -4.564798 -4.528945 -4.666005 -4.6372952 -4.501792 -4.4983215
-4.4718814 -4.5471997 -4.634735 -4.580666 -4.5338564 -4.4966555 -4.5758343 -4.6269655
-4.5829577 -4.601622 -4.5814233 -4.571194 -4.5117393 -4.451788 -4.531223 -4.537493
-4.601815 -4.5881753 -4.5830884 -4.547415 -4.546297 -4.5629244 -4.5483947 -4.58779
-4.5852284 -4.4870224 -4.596198 -4.5043993 -4.5289855 -4.654083 -4.6009736 -4.518812
-4.5542564 -4.555724 -4.598171 -4.634373 -4.592784 -4.5204496 -4.5273447 -4.5714645
-4.461723 -4.61063 -4.34775 -4.3225107 -4.2481985 -4.288139 -4.2586465 -4.3006067
00000000: f2c3 74c0 5d7f 73c0 21ad 7dc0 e31e 78c0
00000010: 5440 71c0 aa93 6dc0 d013 71c0 f754 76c0
00000020: 5a39 77c0 aa1c 74c0 b037 75c0 f4ec 6ec0
00000030: d7ba 71c0 878f 78c0 cf66 74c0 ce67 74c0
00000040: 786b 70c0 2d11 73c0 1a03 77c0 40ab 74c0
00000050: 2a8f 75c0 fff7 75c0 d98c 77c0 a4b5 76c0
00000060: c480 73c0 bcae 75c0 3f84 75c0 41ea 72c0
00000070: dcfb 71c0 02ea 77c0 de60 77c0 ccff 77c0
00000080: 8c44 6ec0 1ee6 72c0 e93d 76c0 5473 73c0
00000090: 8f9a 6ac0 1700 6ec0 c347 6ec0 26ca 74c0
000000a0: 7f6e 72c0 bf0c 76c0 c978 7cc0 e2d2 70c0
000000b0: 7ebd 70c0 f81d 76c0 cf77 77c0 f989 74c0
000000c0: d77a 75c0 7eba 72c0 42bb 52c0 ce4d 4ac0
000000d0: 249e 4ac0 5221 4bc0 9e3b 50c0 ddf8 50c0
000000e0: 19aa 50c0 5190 50c0 1f1e 4fc0 6e81 4fc0
000000f0: ffbb 49c0 6c81 4ac0 ac21 4dc0 8127 4fc0
00000100: f815 54c0 7924 53c0 7889 4bc0 f3f2 4dc0
00000110: a857 4ec0 5fd4 51c0 be53 4ec0 dabf 4cc0
00000120: 913a 4cc0 dfd9 4fc0 05ad 4dc0 bbd8 52c0
00000130: 69f4 4dc0 c02d 50c0 33ba 4cc0 efb8 4dc0
00000140: cc61 4cc0 a9f8 52c0 6f75 4ec0 37f7 4bc0
00000150: 01d2 4cc0 5293 52c0 9eea 54c0 bff8 4dc0
00000160: 44dc 4ac0 2150 4bc0 13cd 51c0 bef6 49c0
00000170: e50d 4cc0 2d0e 4ec0 b4b8 4fc0 7e32 53c0
00000180: fbcb 4fc0 5aa5 52c0 a489 51c0 bec7 4fc0
00000190: 7989 87c0 c62d 88c0 b7eb 88c0 0a09 89c0
000001a0: a108 89c0 fbc0 87c0 5b57 88c0 d995 86c0
000001b0: 7eea 88c0 149c 85c0 6d16 8cc0 0223 87c0
000001c0: ff6d 88c0 ed41 89c0 6e55 84c0 1c50 8ac0
000001d0: fb80 86c0 ce90 88c0 1666 8bc0 ee45 85c0
000001e0: 7706 88c0 ada1 8bc0 34dc 89c0 ef09 8bc0
000001f0: ad71 87c0 3620 8ac0 f889 87c0 88b4 87c0
00000200: 283c 86c0 44d2 87c0 17aa 8ac0 5014 89c0
00000210: e60f 86c0 cd56 87c0 c16e 88c0 8602 86c0
00000220: 17b2 89c0 cd30 88c0 88e7 8ac0 ecec 86c0
00000230: 2296 84c0 7c03 88c0 9b64 88c0 ecb8 88c0
00000240: 5040 89c0 4c55 85c0 85af 8ac0 c763 86c0
00000250: 3996 89c0 937b 8ac0 bca9 7cc0 0ee9 7ec0
00000260: bf90 7bc0 e856 82c0 d141 81c0 e544 80c0
00000270: 4d77 81c0 f8da 82c0 c1cc 7ec0 0381 7ec0
00000280: 0341 84c0 194c 84c0 8e94 80c0 1e4b 81c0
00000290: 42f0 7cc0 6257 80c0 44c0 80c0 4a26 83c0
000002a0: 6280 7cc0 1c3f 81c0 6f58 80c0 bde6 7ac0
000002b0: ee6a 79c0 c1d2 80c0 c896 81c0 2fe1 81c0
000002c0: d951 81c0 2a1d 80c0 0f92 7fc0 2765 80c0
000002d0: 739c 80c0 4a1f 7fc0 b855 7fc0 6b9e 80c0
000002e0: fd50 81c0 1319 80c0 d2ab 80c0 1b5c 7ec0
000002f0: 5c73 80c0 e7a4 7ac0 cbf5 80c0 d3ea 80c0
00000300: 5b09 7fc0 94d7 7fc0 fe5d 7fc0 fb1c 80c0
00000310: 21ae 80c0 85d0 80c0 a119 82c0 cd47 82c0
00000320: db2b 91c0 0343 91c0 d312 92c0 1eed 90c0
00000330: ea4f 95c0 b964 94c0 ae0e 90c0 40f2 8fc0
00000340: a719 8fc0 a982 91c0 c04f 94c0 d194 92c0
00000350: 5a15 91c0 9ae4 8fc0 3c6d 92c0 1a10 94c0
00000360: 97a7 92c0 7d40 93c0 059b 92c0 3947 92c0
00000370: 2b60 90c0 0c75 8ec0 c7ff 90c0 2533 91c0
00000380: 1242 93c0 55d2 92c0 a9a8 92c0 6c84 91c0
00000390: 447b 91c0 7a03 92c0 738c 91c0 2dcf 92c0
000003a0: 31ba 92c0 b095 8fc0 0e14 93c0 0a24 90c0
000003b0: 73ed 90c0 3fee 94c0 2d3b 93c0 1c9a 90c0
000003c0: 78bc 91c0 7ec8 91c0 3824 93c0 c94c 94c0
000003d0: 16f8 92c0 86a7 90c0 02e0 90c0 7049 92c0
000003e0: 6fc6 8ec0 488a 93c0 c520 8bc0 0252 8ac0
000003f0: 3ef1 87c0 6f38 89c0 d546 88c0 929e 89c0

_guide.locs.k_r_factors_per_groups_unconstrained f4 [50, 1]
2.2487676 2.2918286 2.286136 2.2941217 2.2711012 2.2360778 2.2515016 2.280758
2.3017638 2.2837229 2.284971 2.2756238 2.2865648 2.2628965 2.2967286 2.2685752
2.2868116 2.2682645 2.2879977 2.272934 2.2646792 2.2692263 2.2946312 2.260107
2.2630174 2.299945 2.2762554 2.250592 2.296906 2.272635 2.3069966 2.2522235
2.2713704 2.2939134 2.2694027 2.309488 2.2600243 2.2909915 2.2705595 2.263122
2.275197 2.272569 2.280511 2.287746 2.2587938 2.2820358 2.2889645 2.2513912
2.260732 2.2820678
00000000: cfeb 0f40 52ad 1240 0d50 1240 e4d2 1240
00000010: b959 1140 e61b 0f40 9a18 1040 f0f7 1140
00000020: 1950 1340 8428 1240 f73c 1240 d2a3 1140
00000030: 1457 1240 4cd3 1040 9afd 1240 5630 1140
00000040: 1f5b 1240 3f2b 1140 8e6e 1240 c077 1140
00000050: 81f0 1040 013b 1140 3ddb 1240 98a5 1040
00000060: 47d5 1040 4d32 1340 2bae 1140 b309 1040
00000070: 8200 1340 da72 1140 d5a5 1340 6e24 1040
00000080: 225e 1140 7acf 1240 e53d 1140 a7ce 1340
00000090: 3da4 1040 9b9f 1240 d950 1140 fed6 1040
000000a0: d49c 1140 c571 1140 e4f3 1140 6e6a 1240
000000b0: 1490 1040 e00c 1240 657e 1240 cb16 1040
000000c0: d5af 1040 660d 1240

_guide.locs.x_fr_group2fact_unconstrained f4 [50, 17]
-3.2785738 -3.3005235 -3.2631965 -3.1795769 -3.323129 -2.5406132 -3.2054849 -3.2405946
-3.2219856 -3.211183 -3.302798 -3.2870872 -3.2162435 -3.1524758 -3.2595186 -3.2211177
-3.294272 -3.262671 -3.2342005 -3.279738 -3.1664095 -3.247159 -2.4595976 -3.148669
-3.1809022 -3.169225 -3.144803 -3.2280831 -3.2413986 -3.1815443 -3.050135 -3.2534049
-3.120835 -3.1997163 -3.1489873 -3.1484592 -3.1383092 -3.1296616 -3.1961436 -2.3993864
-3.0939267 -3.0869803 -3.1604786 -3.0751607 -3.2085042 -3.1949608 -3.1115592 -2.9788435
-3.1255095 -3.0497193 -3.1238284 -3.1422846 -3.1173031 -3.1140337 -3.133077 -3.2045114
-2.5063775 -3.0213723 -3.034723 -3.1653318 -3.103632 -3.1731243 -3.1166797 -3.0343275
-2.92827 -3.0519395 -2.9853787 -3.100974 -3.188877 -3.1998978 -3.1843448 -3.1987772
-3.2340837 -2.4657323 -3.164169 -3.1580389 -3.1936035 -3.1623206 -3.2474844 -3.1773112
-3.1538801 -3.0455952 -3.1915164 -3.0962954 -3.200436 -3.3104513 -3.2659833 -3.2460485
-3.2168536 -3.3110974 -2.4670665 -3.251073 -3.2502105 -3.2691963 -3.2311254 -3.312204
-3.2649548 -3.2954643 -3.1553879 -3.281177 -3.200988 -3.2552981 -3.1537666 -3.1974795
-3.1576042 -3.1717257 -3.263452 -2.4757602 -3.0780165 -3.113864 -3.1561947 -3.1501
-3.1958568 -3.229875 -3.1269162 -3.0207663 -3.1802003 -3.0990555 -3.1852307 -3.0884497
-3.0645847 -3.1072924 -3.1185713 -3.1426153 -2.4876966 -3.001438 -3.023311 -3.1142697
-3.1156301 -3.1189628 -3.1310618 -3.065923 -2.8876474 -3.089629 -2.9745395 -3.0759966
-3.2100399 -3.1954865 -3.2369401 -3.1367812 -3.2262902 -2.4803321 -3.1255293 -3.1408532
-3.1907997 -3.154872 -3.2235205 -3.181856 -3.1379094 -3.032096 -3.1613066 -3.0685813
-3.1569915 -3.2151513 -3.1771955 -3.1570766 -3.1864557 -3.2397661 -2.4794922 -3.106752
-3.0998356 -3.1536074 -3.158341 -3.2064364 -3.1564085 -3.1198592 -3.0158308 -3.1454084
-3.0912364 -3.1626298 -3.1641307 -3.1283026 -3.1169145 -3.1304412 -3.155763 -2.518549
-3.0729694 -3.0383425 -3.1629264 -3.1157799 -3.145185 -3.1472447 -3.107297 -2.97732
-3.109057 -2.9976077 -3.0675864 -3.2230382 -3.1628633 -3.2005541 -3.1646512 -3.26604
-2.5061665 -3.1596496 -3.124963 -3.2046437 -3.163843 -3.2615507 -3.1902034 -3.193868
-3.0745745 -3.198398 -3.1652448 -3.1781507 -3.2074587 -3.1774957 -3.1843662 -3.2115588
-3.2847202 -2.5541615 -3.0556536 -3.1090395 -3.1896074 -3.1616778 -3.2678282 -3.2154262
-3.1483896 -3.0054722 -3.1741366 -3.025926 -3.1796563 -3.2746146 -3.2279668 -3.2044976
-3.218666 -3.2696955 -2.49086 -3.179488 -3.162096 -3.1799853 -3.2257926 -3.261959
-3.2032201 -3.193768 -3.041318 -3.2408319 -3.1272764 -3.205234 -3.1038988 -3.09282
-3.1453042 -3.090601 -3.141986 -2.4638762 -3.0328429 -3.022599 -3.1198125 -3.0884259
-3.1419158 -3.1257427 -3.0979238 -2.8869085 -3.0840144 -2.996093 -3.0278099 -3.2573423
00000000: 27d4 51c0 c73b 53c0 36d8 50c0 307e 4bc0
00000010: 25ae 54c0 6899 22c0 aa26 4dc0 e765 4fc0
00000020: 0335 4ec0 0684 4dc0 0b61 53c0 a35f 52c0
00000030: efd6 4dc0 2ac2 49c0 f49b 50c0 cb26 4ec0
00000040: 5ad5 52c0 9acf 50c0 24fd 4ec0 3ae7 51c0
00000050: 74a6 4ac0 74d1 4fc0 0c6a 1dc0 cb83 49c0
00000060: e793 4bc0 95d4 4ac0 7444 49c0 ea98 4ec0
00000070: 1373 4fc0 6c9e 4bc0 6935 43c0 c937 50c0
00000080: c3bb 47c0 27c8 4cc0 0289 49c0 5b80 49c0
00000090: 0fda 48c0 604c 48c0 9e8d 4cc0 8c8f 19c0
000000a0: e502 46c0 1691 45c0 4845 4ac0 6fcf 44c0
000000b0: 2258 4dc0 3d7a 4cc0 c923 47c0 5fa5 3ec0
000000c0: 5908 48c0 9a2e 43c0 ceec 47c0 311b 49c0
000000d0: e581 47c0 544c 47c0 5584 48c0 b716 4dc0
000000e0: 7d68 20c0 2a5e 41c0 e738 42c0 cc94 4ac0
000000f0: e8a1 46c0 7814 4bc0 ae77 47c0 6c32 42c0
00000100: c768 3bc0 fa52 43c0 7210 3fc0 5c76 46c0
00000110: 9016 4cc0 20cb 4cc0 4ecc 4bc0 c4b8 4cc0
00000120: 3afb 4ec0 8fce 1dc0 bf81 4ac0 4f1d 4ac0
00000130: 0064 4cc0 7663 4ac0 c9d6 4fc0 1159 4bc0
00000140: 2cd9 49c0 08eb 42c0 ce41 4cc0 b429 46c0
00000150: f2d3 4cc0 6fde 53c0 df05 51c0 42bf 4fc0
00000160: eee0 4dc0 05e9 53c0 6be4 1dc0 9411 50c0
00000170: 7303 50c0 833a 51c0 c2ca 4ec0 26fb 53c0
00000180: 05f5 50c0 e3e8 52c0 e0f1 49c0 cefe 51c0
00000190: fddc 4cc0 ce56 50c0 50d7 49c0 81a3 4cc0
000001a0: 3016 4ac0 8efd 4ac0 66dc 50c0 db72 1ec0
000001b0: 39fe 44c0 8c49 47c0 18ff 49c0 3d9b 49c0
000001c0: eb88 4cc0 46b6 4ec0 651f 48c0 3c54 41c0
000001d0: 6788 4bc0 ed56 46c0 d2da 4bc0 29a9 45c0
000001e0: 2822 44c0 e1dd 46c0 ac96 47c0 9c20 49c0
000001f0: 6c36 1fc0 8f17 40c0 ed7d 41c0 3250 47c0
00000200: 7c66 47c0 169d 47c0 5163 48c0 1538 44c0
00000210: 37cf 38c0 7bbc 45c0 db5e 3ec0 21dd 44c0
00000220: 4b71 4dc0 da82 4cc0 072a 4fc0 06c1 48c0
00000230: 8a7b 4ec0 c3bd 1ec0 ac08 48c0 bd03 49c0
00000240: 1036 4cc0 6ce9 49c0 294e 4ec0 87a3 4bc0
00000250: 82d3 48c0 dc0d 42c0 d952 4ac0 a363 44c0
00000260: 260c 4ac0 0ac5 4dc0 2c57 4bc0 8b0d 4ac0
00000270: e4ee 4bc0 5458 4fc0 00b0 1ec0 06d5 46c0
00000280: b563 46c0 b4d4 49c0 4222 4ac0 4136 4dc0
00000290: 9902 4ac0 c6ab 47c0 5f03 41c0 5f4e 49c0
000002a0: d1d6 45c0 8768 4ac0 1e81 4ac0 1c36 48c0
000002b0: 877b 47c0 2659 48c0 05f8 49c0 e82f 21c0
000002c0: 88ab 44c0 3474 42c0 636d 4ac0 f068 47c0
000002d0: b64a 49c0 756c 49c0 f4dd 46c0 698c 3ec0
000002e0: cafa 46c0 ced8 3fc0 5653 44c0 4246 4ec0
000002f0: 5a6c 4ac0 e1d5 4cc0 a589 4ac0 cd06 51c0
00000300: 0865 20c0 b337 4ac0 65ff 47c0 e218 4dc0
00000310: 677c 4ac0 3fbd 50c0 4b2c 4cc0 5568 4cc0
00000320: d4c5 44c0 8eb2 4cc0 5f93 4ac0 d266 4bc0
00000330: 0147 4dc0 175c 4bc0 a8cc 4bc0 2e8a 4dc0
00000340: db38 52c0 6277 23c0 d48f 43c0 81fa 46c0
00000350: 8722 4cc0 ee58 4ac0 1924 51c0 8bc9 4dc0
00000360: 377f 49c0 a859 40c0 0e25 4bc0 c6a8 41c0
00000370: 7d7f 4bc0 4993 51c0 0297 4ec0 7d16 4dc0
00000380: a0fe 4dc0 b142 51c0 406a 1fc0 bb7c 4bc0
00000390: c85f 4ac0 e184 4bc0 6373 4ec0 f0c3 50c0
000003a0: 8f01 4dc0 b266 4cc0 f4a4 42c0 ca69 4fc0
000003b0: 4c25 48c0 8e22 4dc0 47a6 46c0 c3f0 45c0
000003c0: aa4c 49c0 68cc 45c0 4c16 49c0 26b0 1dc0
000003d0: 191a 42c0 4372 41c0 02ab 47c0 c5a8 45c0
000003e0: 2615 49c0 2b0c 48c0 6244 46c0 1cc3 38c0
000003f0: 7e60 45c0 fdbf 3fc0 a3c7 41c0 4c78 50c0

_guide.locs.w_sf_unconstrained f4 [542, 17]
-2.711703 -2.7535753 -2.6938334 -3.0037835 -3.1528738 -0.33625168 -2.734826 -2.8081613
-3.1171901 -3.0724921 -2.6675048 -2.779489 -3.0989964 -3.0059826 -2.8224912 -2.973856
-2.8384833 -1.554669 -1.7171614 -1.518972 -1.808986 -1.6824592 -0.7819754 -1.6077464
-1.4786563 -1.6134776 -1.3771931 -1.8566517 -1.6475959 -1.7283471 -1.6659702 -1.6921449
-1.7099541 -1.7369312 -3.6410682 -3.6751974 -3.5546565 -3.858627 -3.9518127 -2.2631915
-3.5779796 -3.4921587 -3.6866229 -3.879063 -3.571188 -3.5698593 -3.6319654 -3.7365892
-3.7896743 -3.8828588 -3.73197 -3.4511821 -3.5505395 -3.6304414 -2.1073942 -3.1064405
-0.5300205 -3.565039 -3.5989933 -2.6007893 -2.902109 -3.3184426 -3.42416 -3.6338704
-3.487414 -3.518579 -3.4340916 -3.479197 -4.5704765 -4.5613813 -4.859323 -4.4897976
-4.6611023 -3.9582903 -4.816182 -4.86635 -4.754743 -4.732631 -4.6935496 -4.706713
-4.8161597 -4.4532895 -4.5551486 -4.3077493 -4.7659054 -4.237903 -4.017098 -4.2297764
-3.454659 -4.1333447 -1.6931198 -4.1047797 -4.264195 -3.731917 -3.5514152 -4.082737
-4.1210303 -3.9413438 -4.165312 -4.206466 -4.174652 -4.2318034 -6.1578283 -6.087979
-6.0601025 -5.7492647 -6.288586 -4.5697074 -6.1036644 -6.0317984 -6.012047 -6.1690106
-5.984273 -6.0209584 -5.9829035 -5.7502866 -6.10647 -5.9203553 -6.035745 -0.21598627
-0.22996853 -0.21545742 -0.21168022 -0.24943152 0.41558352 -0.15865734 -0.114764675 -0.21456918
-0.14053646 -0.34400073 -0.26154104 -0.12441023 0.108955316 -0.14226046 0.038856715 -0.17977563
-3.0953765 -3.3026178 -3.0219786 -3.9475443 -3.6635902 -3.1459951 -3.0764954 -3.1020951
-3.9954681 -3.9525397 -3.2457085 -3.1624978 -3.3590763 -3.0904162 -3.3691494 -3.2533805
-3.2076848 0.72564703 0.77143246 0.81108624 0.729983 0.7007347 1.09724 0.89632046
0.8818424 0.6729924 0.7166494 0.7109308 0.7540103 0.78590256 1.0679091 0.83692324
0.97470933 0.82335675 -0.46546805 -0.43617797 -0.31428972 -0.829412 -0.5367697 -0.14188029
-0.23597693 -0.2104544 -0.6814493 -0.49505115 -0.5134136 -0.39562163 -0.2612176 0.21728541
-0.26377508 -0.042929806 -0.26495394 -4.113665 -4.074944 -4.227698 -4.593737 -4.689778
-2.3665307 -4.399254 -4.4018283 -4.8567085 -4.926105 -3.9247787 -4.0385303 -4.499637
-4.474405 -4.3619456 -4.4903975 -4.1383963 -4.048869 -3.7720048 -3.7643085 -3.9056835
-4.0540524 -2.2242868 -3.4940438 -3.5285795 -3.9387596 -4.1485057 -4.0287213 -3.9913764
-3.4697711 -3.6186602 -3.7722175 -3.5982983 -3.8529801 -5.987421 -5.9841084 -6.1605644
-6.1112523 -6.0166993 -3.2219553 -6.041259 -6.0340457 -6.032643 -5.9703007 -6.1305585
-5.902705 -6.0305743 -5.758624 -5.9614797 -5.8810263 -5.885949 -5.073193 -4.9728427
-4.8801794 -5.145776 -5.031144 -2.4009397 -4.735734 -4.66705 -5.19166 -5.192301
-4.978216 -4.9701886 -4.4553003 -4.75335 -4.880427 -4.843764 -4.998531 -3.436573
00000000: 8b8c 2dc0 943a 30c0 c467 2cc0 fd3d 40c0
00000010: afc8 49c0 2e29 acbe 6407 2fc0 eab8 33c0
00000020: 0b80 47c0 b6a3 44c0 66b8 2ac0 26e3 31c0
00000030: f555 46c0 0562 40c0 b2a3 34c0 a853 3ec0
00000040: b6a9 35c0 65ff c6bf f2cb dbbf ad6d c2bf
00000050: da8c e7bf d35a d7bf 8a2f 48bf a2ca cdbf
00000060: 9c44 bdbf 6f86 cebf dd47 b0bf c3a6 edbf
00000070: 6ce4 d2bf 7a3a ddbf 833e d5bf 3498 d8bf
00000080: c7df dabf c353 debf 4307 69c0 6f36 6bc0
00000090: 7e7f 63c0 bff3 76c0 80ea 7cc0 21d8 10c0
000000a0: 9efd 64c0 877f 5fc0 a1f1 6bc0 9142 78c0
000000b0: 588e 64c0 9378 64c0 1f72 68c0 4724 6fc0
000000c0: 068a 72c0 c280 78c0 99d8 6ec0 2be0 5cc0
000000d0: 0a3c 63c0 2759 68c0 8cdf 06c0 eccf 46c0
000000e0: 6caf 07bf 9929 64c0 e855 66c0 5573 26c0
000000f0: 27bc 39c0 5d61 54c0 7025 5bc0 5591 68c0
00000100: ca31 5fc0 6630 61c0 28c8 5bc0 2aab 5ec0
00000110: 5841 92c0 d6f6 91c0 937f 9bc0 6cac 8fc0
00000120: c027 95c0 a154 7dc0 2a1e 9ac0 24b9 9bc0
00000130: db26 98c0 b771 97c0 8f31 96c0 659d 96c0
00000140: fb1d 9ac0 5981 8ec0 c7c3 91c0 15d9 89c0
00000150: 4c82 98c0 e79c 87c0 118c 80c0 545a 87c0
00000160: 2219 5dc0 5c44 84c0 26b8 d8bf 5b5a 83c0
00000170: 4974 88c0 bad7 6ec0 634a 63c0 c8a5 82c0
00000180: 7bdf 83c0 fa3e 7cc0 3c4a 85c0 5f9b 86c0
00000190: c096 85c0 ef6a 87c0 ee0c c5c0 b9d0 c2c0
000001a0: 5cec c1c0 faf9 b7c0 193c c9c0 0b3b 92c0
000001b0: 3851 c3c0 7e04 c1c0 b062 c0c0 8968 c5c0
000001c0: 2a7f bfc0 b1ab c0c0 f273 bfc0 5902 b8c0
000001d0: 3468 c3c0 8d73 bdc0 d324 c1c0 812b 5dbe
000001e0: df7c 6bbe dfa0 5cbe b3c2 58be fa6a 7fbe
000001f0: 5dc7 d43e 1277 22be be09 ebbd 06b8 5bbe
00000200: cae8 0fbe dd20 b0be b5e8 85be caca febd
00000210: f723 df3d baac 11be 3828 1f3d 1a17 38be
00000220: a61a 46c0 175e 53c0 1968 41c0 91a4 7cc0
00000230: 4378 6ac0 fc57 49c0 4de5 44c0 ba88 46c0
00000240: c0b5 7fc0 69f6 7cc0 b0b9 4fc0 5d66 4ac0
00000250: 1bfb 56c0 61c9 45c0 25a0 57c0 6337 50c0
00000260: b54a 4dc0 01c4 393f 997c 453f 59a3 4f3f
00000270: 2ae0 3a3f 5963 333f 5c72 8c3f 4275 653f
00000280: 6cc0 613f 3b49 2c3f 5676 373f 90ff 353f
00000290: d206 413f e930 493f 3fb1 883f 9a40 563f
000002a0: 8d86 793f 82c7 523f d451 eebe b852 dfbe
000002b0: 95ea a0be 5854 54bf bd69 09bf 1149 11be
000002c0: f0a3 71be 5c81 57be 7673 2ebf 5877 fdbe
000002d0: 136f 03bf eb8e cabe 50be 85be 1180 5e3e
000002e0: 870d 87be 2ad7 2fbd 0ba8 87be 25a3 83c0
000002f0: f165 82c0 4d49 87c0 e5ff 92c0 a912 96c0
00000300: 3d75 17c0 b0c6 8cc0 c7db 8cc0 286a 9bc0
00000310: a7a2 9dc0 932f 7bc0 a43b 81c0 07fd 8fc0
00000320: 532e 8fc0 0f95 8bc0 56b1 8fc0 be6d 84c0
00000330: 5690 81c0 8768 71c0 6eea 70c0 b8f6 79c0
00000340: ccba 81c0 b75a 0ec0 6a9e 5fc0 3fd4 61c0
00000350: a314 7cc0 8fc0 84c0 49eb 80c0 b672 7fc0
00000360: bb10 5ec0 2198 67c0 036c 71c0 854a 66c0
00000370: 3a97 76c0 f498 bfc0 d17d bfc0 5823 c5c0
00000380: 618f c3c0 cd88 c0c0 8434 4ec0 fe51 c1c0
00000390: e716 c1c0 690b c1c0 b40c bfc0 892d c4c0
000003a0: f6e2 bcc0 77fa c0c0 a646 b8c0 71c4 bec0
000003b0: 5e31 bcc0 b259 bcc0 9957 a2c0 8721 9fc0
000003c0: 6e2a 9cc0 32aa a4c0 22ff a0c0 ffa8 19c0
000003d0: 228b 97c0 7958 95c0 1422 a6c0 5427 a6c0
000003e0: 8c4d 9fc0 c90b 9fc0 d291 8ec0 711b 98c0
000003f0: 752c 9cc0 1d00 9bc0 f7f3 9fc0 d0f0 5bc0

_guide.locs.detection_y_s_unconstrained f4 [542, 1]
-1.1075125 -1.0864842 -1.1100475 -1.0970163 -1.0999142 -1.0883657 -1.1047707 -1.0410343
-1.1099705 -0.9631048 -1.0436074 -1.1175593 -1.094585 -1.113903 -1.1092018 -1.0948148
-1.099148 -1.104849 -1.1060015 -1.1011294 -1.0951221 -0.94130784 -1.0283608 -1.0957977
-1.1014168 -1.1060047 -1.0565859 -1.0884727 -1.0901376 -1.0929878 -1.0984666 -1.0273904
-1.1192886 -1.09782 -1.0516964 -1.0987401 -1.0864525 -0.95211726 -1.0837034 -1.0408003
-1.1043484 -1.092077 -1.0737855 -1.1141224 -1.110897 -1.0480739 -1.1208808 -1.0935037
-1.0991858 -1.0487432 -1.1095251 -1.1080428 -1.1078335 -1.062589 -1.0977793 -1.101254
-1.098577 -1.0902814 -1.1037823 -1.1111299 -1.1120178 -1.0701458 -0.9617779 -1.0956011
-1.0748109 -1.1099899 -0.990135 -1.1008825 -1.1043352 -1.0950013 -1.0881395 -1.0926794
-1.0764668 -1.079739 -0.94054353 -1.0850449 -1.0723308 -1.113101 -0.9651481 -1.1027863
-1.1052552 -1.1243683 -1.0629016 -0.9354803 -1.133611 -1.0202475 -1.1217731 -1.1006094
-1.1098346 -1.1030786 -0.92929333 -1.1113932 -1.0570343 -0.9977403 -1.0863463 -1.0946281
-1.108624 -1.0863887 -1.1017458 -1.1116328 -1.1128111 -1.1164845 -1.0905951 -1.0616745
-1.0715548 -1.0849077 -1.0958136 -1.0900307 -1.1192981 -1.0993629 -0.96232843 -0.9293087
-1.0387014 -1.1119788 -1.1105912 -1.0831732 -1.1069965 -1.1109225 -1.1127723 -1.0260414
-0.9021698 -0.8700463 -1.1068709 -1.0658673 -0.9824946 -1.0965669 -1.1172634 -1.0989554
-0.96126 -1.0578341 -1.0834837 -1.1260695 -1.109806 -1.0387923 -1.0878443 -1.0801028
-1.0599753 -1.1023878 -1.095062 -1.0838745 -1.0971476 -0.9676 -1.1013534 -1.0478469
-1.0883894 -1.0656738 -1.0886973 -1.1151336 -1.1073685 -0.94234633 -1.1103865 -1.1092879
-1.0345612 -1.0520545 -1.109948 -1.118544 -1.0910031 -0.99105823 -1.0803897 -1.0877259
-1.0566959 -1.0869173 -1.0996175 -1.0783484 -1.1006806 -0.9971091 -1.0616816 -1.1049671
-1.1002012 -1.0309327 -1.080789 -1.108618 -1.070281 -1.0894238 -0.9754958 -0.94389707
-1.0914379 -1.0965945 -0.96213835 -1.0946766 -1.0842316 -1.0816665 -1.1007962 -1.108518
-1.0885168 -1.0954162 -1.1157594 -0.9812968 -1.0905756 -0.9690904 -1.1035509 -1.0652642
-1.0976412 -1.1105977 -0.91320026 -1.103971 -0.97755396 -1.109534 -1.0904338 -1.1040893
-0.9103495 -1.0762922 -1.0881176 -1.102444 -1.0717124 -1.1081446 -0.9878336 -1.0841658
-1.0914669 -0.989381 -1.1084849 -1.1057509 -1.0988712 -1.1080947 -1.0882056 -0.99010926
-1.1009171 -1.08425 -1.0919114 -1.0925187 -1.1035266 -1.1048359 -1.032913 -1.1164447
-1.0918416 -1.098258 -1.0961541 -1.1045126 -1.089765 -1.0726391 -0.9541599 -1.1124705
-1.0409949 -0.9159279 -1.1055001 -1.0775361 -1.102057 -1.0852555 -1.0746056 -1.1074595
-1.0548956 -1.0915709 -1.0184308 -1.0851249 -1.1029236 -0.88685304 -1.1087536 -1.0996767
-1.0971178 -1.1137772 -1.1020668 -1.0734162 -1.0746108 -1.1169955 -1.108167 -0.9306365
00000000: f8c2 8dbf ea11 8bbf 0916 8ebf 086b 8cbf
00000010: fdc9 8cbf 914f 8bbf 2069 8dbf 9d40 85bf
00000020: 8313 8ebf 098e 76bf ed94 85bf 2f0c 8fbf
00000030: 5c1b 8cbf 6094 8ebf 53fa 8dbf e422 8cbf
00000040: e2b0 8cbf b16b 8dbf 7591 8dbf cff1 8cbf
00000050: f62c 8cbf 8df9 70bf 54a1 83bf 1943 8cbf
00000060: 3afb 8cbf 9091 8dbf 353e 87bf 1353 8bbf
00000070: a189 8bbf 06e7 8bbf 8e9a 8cbf 8781 83bf
00000080: d944 8fbf 5e85 8cbf fd9d 86bf 84a3 8cbf
00000090: e010 8bbf f5bd 73bf cbb6 8abf f238 85bf
000000a0: 4a5b 8dbf 2ec9 8bbf ce71 89bf 909b 8ebf
000000b0: df31 8ebf 4927 86bf 0679 8fbf eef7 8bbf
000000c0: 1fb2 8cbf 383d 86bf eb04 8ebf 59d4 8dbf
000000d0: 7dcd 8dbf eb02 88bf 0884 8cbf e4f5 8cbf
000000e0: 2c9e 8cbf 578e 8bbf bd48 8dbf 8139 8ebf
000000f0: 9956 8ebf 8afa 88bf 1437 76bf a83c 8cbf
00000100: 6793 89bf 2614 8ebf 7d79 7dbf b8e9 8cbf
00000110: db5a 8dbf 0129 8cbf 2848 8bbf ebdc 8bbf
00000120: aac9 89bf e334 8abf 76c7 70bf c0e2 8abf
00000130: 2342 89bf 187a 8ebf f213 77bf 1a28 8dbf
00000140: 0179 8dbf 4deb 8fbf 290d 88bf a37b 6fbf
00000150: 2a1a 91bf 7897 82bf 4396 8fbf c5e0 8cbf
00000160: 0f0f 8ebf ae31 8dbf 2be6 6dbf 2242 8ebf
00000170: e64c 87bf e96b 7fbf 650d 8bbf c61c 8cbf
00000180: 64e7 8dbf c90e 8bbf 0206 8dbf fc49 8ebf
00000190: 9870 8ebf f7e8 8ebf 9f98 8bbf f3e4 87bf
000001a0: b528 89bf 41de 8abf 9f43 8cbf 2086 8bbf
000001b0: 2945 8fbf ecb7 8cbf 285b 76bf 2de7 6dbf
000001c0: 2bf4 84bf 5255 8ebf da27 8ebf 6ba5 8abf
000001d0: 10b2 8dbf b532 8ebf 536f 8ebf 5355 83bf
000001e0: 9af4 66bf 5bbb 5ebf f2ad 8dbf 576e 88bf
000001f0: c484 7bbf 4e5c 8cbf 7d02 8fbf 92aa 8cbf
00000200: 2315 76bf 1c67 87bf 98af 8abf 0c23 90bf
00000210: 1f0e 8ebf 25f7 84bf 7b3e 8bbf cf40 8abf
00000220: 45ad 87bf 0b1b 8dbf fe2a 8cbf 66bc 8abf
00000230: 556f 8cbf a2b4 77bf 26f9 8cbf d91f 86bf
00000240: 5850 8bbf 0068 88bf 6f5a 8bbf b3bc 8ebf
00000250: 40be 8dbf 9c3d 71bf 2521 8ebf 25fd 8dbf
00000260: 806c 84bf b9a9 86bf c712 8ebf 732c 8fbf
00000270: fda5 8bbf feb5 7dbf 364a 8abf 9a3a 8bbf
00000280: d041 87bf 1b20 8bbf 44c0 8cbf 5207 8abf
00000290: 1ae3 8cbf 8b42 7fbf 2fe5 87bf 906f 8dbf
000002a0: 65d3 8cbf 9af5 83bf 4b57 8abf 32e7 8dbf
000002b0: f8fe 88bf 3d72 8bbf 18ba 79bf 3da3 71bf
000002c0: 3db4 8bbf 355d 8cbf b34e 76bf 5d1e 8cbf
000002d0: 1ac8 8abf 0c74 8abf e4e6 8cbf ebe3 8dbf
000002e0: 8554 8bbf 9936 8cbf 34d1 8ebf 4436 7bbf
000002f0: fb97 8bbf 4f16 78bf 2841 8dbf 945a 88bf
00000300: 827f 8cbf 1128 8ebf 7ec7 69bf ec4e 8dbf
00000310: fa40 7abf 3605 8ebf 5693 8bbf cc52 8dbf
00000320: aa0c 69bf f1c3 89bf 7047 8bbf e31c 8dbf
00000330: df2d 89bf afd7 8dbf aae2 7cbf f2c5 8abf
00000340: 30b5 8bbf 1348 7dbf d5e2 8dbf 3f89 8dbf
00000350: d0a7 8cbf 0cd6 8dbf 524a 8bbf cd77 7dbf
00000360: daea 8cbf b4c8 8abf c1c3 8bbf a7d7 8bbf
00000370: 5c40 8dbf 436b 8dbf 7e36 84bf a9e7 8ebf
00000380: 77c1 8bbf b893 8cbf c74e 8cbf ab60 8dbf
00000390: 6b7d 8bbf 3d4c 89bf d343 74bf 6f65 8ebf
000003a0: 523f 85bf 407a 6abf 0781 8dbf b4ec 89bf
000003b0: 3410 8dbf a7e9 8abf ad8c 89bf 3cc1 8dbf
000003c0: d206 87bf 98b8 8bbf f15b 82bf 5fe5 8abf
000003d0: 9a2c 8dbf cd08 63bf a3eb 8dbf 35c2 8cbf
000003e0: 5b6e 8cbf 4090 8ebf 8610 8dbf b465 89bf
000003f0: d98c 89bf b5f9 8ebf 6bd8 8dbf 323e 6ebf
